saved/20191016134.pt (torch_old, 63773 bytes, 13 tensors)

GAT_layers.0.f.weight f4 [32, 6]
00000000: c6c8 f5bb 5e63 183f c852 de3e 9891 b63b
00000010: b5ec 273f cadd 0e3f 3734 673e d315 f03e
00000020: 6114 0dbf 8479 f83a fce4 0f3e ca02 98be
00000030: 3ce9 963d 5382 a7be c6ed 24c0 3b5c e03d
00000040: 3683 e03d d130 33c0 8e19 d33d b460 ce3d
00000050: 114e 16bf d5d2 b0be c774 9a3e 37c2 95be
00000060: cc03 55c0 f395 09bd a892 163f 14a4 63c0
00000070: 8aa4 553d c69e 0a3f b6a7 093d 8301 293f
00000080: f261 5dbd d3a7 c2ba cd0a 763e 5f43 a9be
00000090: 4030 23bd 86b3 013e a27a 033e d07a aabd
000000a0: 38a4 0bbe 804d 7ebe 2073 42be c125 c63e
000000b0: 4515 2bbd d9d1 3c3e 0cf6 3d3e f03b 81be
000000c0: 8911 a9be 5a92 93be e690 243e 40e0 a2bd
000000d0: 08bc c13d 1855 393d 6f66 79bd 8ec9 e13e
000000e0: 430e 68bc 123f a3bc 18a6 db3e fc1d 6bbe
000000f0: b180 d83d 9667 073e 4dcf e7be 19a5 02bd
00000100: cf6c 5abe 3d5c 2a3b 1cb6 c03d 8a51 94bf
00000110: 94f7 e13e 26dd a23c 6906 d5bf 2374 cb3d
00000120: e818 e53d f7be 883e feb2 bdbd 0a21 d4be
00000130: cfa7 7f3e 298d 623e 24ce f63c 8fe5 1a3f
00000140: 48a1 1a3f cbe3 68ba cd9c a03e 3046 193f
00000150: db8f 4d3e ae8d 4cbd e407 1e3f 9b19 c2bc
00000160: 2ead 5fbe e3d0 edbc 00cf e7ba b074 873c
00000170: d6ca 3a3e 8788 b0be d093 c3bd 9305 a7be
00000180: 5ff2 943d c2e5 eebe ffcf 753f 28eb a83a
00000190: c19b 34bf 36e3 e13e f80a d13d e2e2 a0bf
000001a0: 8b23 513f 69e7 d03d 892b 7dbf c8fb 5a3e
000001b0: e7dc 923d e17f a2be 2aba bbbd 75d2 82be
000001c0: 0cab 3fbe 9ce0 383e 907e cfbc 8487 c93d
000001d0: 983a c33d 0bee 99be aa4e 253e 65f2 87be
000001e0: b445 993d bf0d c23e 0b9f 0f3f a04b 43bd
000001f0: 947d 463d 8aa7 353f a2d3 0d3f 2eb3 613d
00000200: 477f 673c 5cd7 e8be 2e2a eebd e1ac 9abd
00000210: ca5b 0fbd 9c3f dcbe b756 5a3f 7dde 0fbc
00000220: 62d1 edbe 17ad 243f 297c 83c0 f276 683e
00000230: d4a9 d2bd 1d8e 8fc0 05a2 993e 6f00 1c3e
00000240: 33c8 20bf da83 dabd ee06 b0be c26b 783d
00000250: dae4 923d 0395 53be 0f16 8ebc 32e3 fcbd
00000260: 96bc 893d 461f cbbc e22c d3bd 9b84 a53d
00000270: e28b ab3d 5a99 c4bd 6e87 e6bf 1dc9 dc3b
00000280: 0054 983d a0cc afbf 55bd 3cbd 93e2 c33e
00000290: c975 10bf fe55 3fbc 1bbb f43e 7c27 e93c
000002a0: b65f 79be 2336 6e3d 9aff c5bb f399 b3be
000002b0: 1bd4 c2be 9ce3 a33e bdbb 473d 308d a2bf
000002c0: 2359 c23c acaf d33c 575d c2bf f401 3abe
000002d0: 2c49 b0bd cb98 89bd d538 c4bc c0b9 873d
000002e0: b0d9 e0bd 0b72 713e 1009 f1bd a0ca df3c
000002f0: 8c7a fcbd 7c48 9abd c299 b9be 200d a0bc
-0.0075007407 0.5952662 0.43422532 0.0055715553 0.6559556 0.55807173 0.22578512 0.4689165
-0.5510922 0.0018957113 0.14052194 -0.29689628 0.07368705 -0.32716617 -2.5770125 0.109550916
0.109625265 -2.7998545 0.103076085 0.100770384 -0.5871287 -0.34535852 0.3016722 -0.29249737
-3.3283567 -0.03359027 0.5881753 -3.5568895 0.05215887 0.5414852 0.033607207 0.6601793
-0.054048486 -0.0014851041 0.24027558 -0.33059213 -0.039840937 0.12666139 0.1283975 -0.08324206
-0.13636863 -0.24834251 -0.18989229 0.3870068 -0.04176833 0.18439426 0.1855089 -0.2524104
-0.3302119 -0.28822595 0.160709 -0.079529285 0.09459692 0.045247167 -0.060888704 0.44099087
-0.0141635565 -0.019927535 0.42900157 -0.22960657 0.10571421 0.13223109 -0.45275345 -0.03189573
-0.2133057 0.002599492 0.094097346 -1.1587384 0.441342 0.019880842 -1.6642581 0.09934261
0.11186391 0.26708195 -0.09262656 -0.41431457 0.24966358 0.22124161 0.030127592 0.6050653
0.60402346 -0.00088840415 0.3136963 0.5987272 0.20074408 -0.049939804 0.6173079 -0.02369385
-0.21843407 -0.029030269 -0.0017685592 0.016535133 0.18241438 -0.34479162 -0.09549677 -0.3262144
0.07272791 -0.46659666 0.960205 0.0012887465 -0.7055016 0.4411866 0.1020717 -1.2569239
0.8169486 0.10200388 -0.98894554 0.2138511 0.0717104 -0.3173819 -0.09166367 -0.2555119
-0.18717593 0.18054432 -0.025328904 0.09840301 0.0953266 -0.30064425 0.16143289 -0.2655212
0.07483998 0.37901112 0.56102055 -0.047679543 0.048459604 0.7095877 0.5540105 0.05510252
0.014129466 -0.45476806 -0.11629139 -0.07552505 -0.034999646 -0.4301728 0.85288566 -0.008781073
-0.4644881 0.64326614 -4.1089063 0.22701624 -0.102862984 -4.486098 0.30006424 0.1523454
-0.6280548 -0.1066968 -0.34380287 0.06064964 0.07172556 -0.20662312 -0.017344503 -0.123480216
0.06725423 -0.024795186 -0.10311295 0.08081933 0.0837629 -0.09599562 -1.801008 0.0067378418
0.07437897 -1.3734322 -0.046079 0.382588 -0.56429726 -0.011678217 0.47799 0.02846121
-0.24352917 0.058157098 -0.006042433 -0.3507839 -0.3805245 0.3200959 0.048763026 -1.2699337
0.023724144 0.025840603 -1.5184735 -0.18164808 -0.086077064 -0.06718596 -0.02395288 0.06627226
-0.109790206 0.2357866 -0.11769307 0.027318299 -0.123280615 -0.075333565 -0.3625012 -0.019537508

GAT_layers.0.f.bias f4 [32]
00000000: 1b09 4fbf e392 db3e 6241 17bf e90f 193f
00000010: a6c9 a13d 1105 04bf 7cbc 99bd 5bca a2be
00000020: e669 b8be fd9d 08bf 7ad4 cb3e aabe 0e3f
00000030: 7a91 e0bd 0d2f 49bf 4722 1cbf 6149 26be
00000040: ef7e 8ebe c7cc fdbf a6d2 d83e 05db c2be
00000050: fb2d d5be a095 6c3c 8adb ad3e bf12 7c3e
00000060: b476 ec3e 9504 a13d 0200 ef3e 81e3 8f3e
00000070: d85f abbe d4b5 063f 9235 1bbe 223f a9be
-0.8087327 0.42885503 -0.5908414 0.597899 0.078997895 -0.5157023 -0.07506654 -0.3179501
-0.36018294 -0.5336607 0.39810544 0.5575968 -0.109652475 -0.7858742 -0.60989803 -0.1623893
-0.27831218 -1.9828118 0.42348212 -0.38057724 -0.41636643 0.01443997 0.33956558 0.24616526
0.46184313 0.07862202 0.46679693 0.2810326 -0.3347156 0.526212 -0.15157154 -0.3305598

GAT_layers.0.w.weight f4 [1, 6]
00000000: 2be5 0bbe 803a 8fbe d042 ee3d f2d4 3cbe
00000010: 7cb0 15bf e9a8 663f
-0.1366164 -0.2797432 0.11633837 -0.18440607 -0.5847242 0.90101486

GAT_layers.1.f.weight f4 [64, 64]
00000000: 43b1 2dbf 817a 973e ac43 7cbe 821f 993e
00000010: 3bb9 b4bf 9d72 8cbe 06eb e23d 9455 45bf
00000020: 1c7c 163d 3530 62bf b374 4b3e ec0e c2bf
00000030: 08fb c6be 33f0 b8be c841 84be 69bc 193e
00000040: d026 8fbd 95a5 383f 8424 cdbd 56be 04be
00000050: 8234 c0be fadb afbc 2d3f cdbe 0111 b1bf
00000060: 75e5 b8be 8fec 0c3e a320 dd3c 5856 673e
00000070: bff9 303e 6cb9 7cbf 848b c83e 7938 4e3e
00000080: fc1c 303e 426b 133f 1b18 99bf 9ebb ad3e
00000090: a37d 61bf b994 f63d d8ac fc3c a1e6 0bbf
000000a0: 4e95 04be d7ce e3be 82c0 ad3e 88e3 e8bf
000000b0: d88a 93bd f421 813e 3272 b13c 2880 dcbd
000000c0: 6ffb 6ebe d208 0abf a93b 45be 0da7 273e
000000d0: 0ec3 673e 9934 643d f581 48bf 908e 33bf
000000e0: bb43 8ebe 93ba 03bf f950 4abc 0e72 2f3e
000000f0: 0e68 bb3d 6853 eebf 85b4 0ebf 47e8 04be
00000100: 403c 2abf 55c6 aa3e 7358 72bd 30ce d83e
00000110: c428 9abd ffc9 87be d5f1 2bbe 0c14 8dbe
00000120: 521d fdbd 6609 c0be 9937 923e 413f 903e
00000130: a0f0 a4be eabc 36bf eeb1 3dbe 5556 553e
00000140: ea6e 2dbf 290d 053e 7582 9b3e 492f 4e3e
00000150: 1ebc 25bf e4ee 153f 9a11 d3be 1332 973d
00000160: 9076 223e 4c41 0abe 1745 2e3e d830 54be
00000170: 2455 6c3d 0736 823e 10d2 38bf eab6 97bd
00000180: 308d e83b 65ef 923e d386 08be 83bb b0bc
00000190: e0c9 5fbf f812 9a3e 90bd 00be fe60 633e
000001a0: bcb2 6a3d b0be 86be 4cba 383e ea4a 00bf
000001b0: 9b84 8abd 1106 bcbe ab6a ddbe 925d e03d
000001c0: e4c1 b4be f921 02bf f45d 92bd f085 45bc
000001d0: 667c d7be 8549 8fbe b3a5 c9be 155f 3abf
000001e0: 7b55 903e 5056 b0be 2302 fe3e 75d1 763e
000001f0: 422f 57be d19a e1be cb2c 693e 8e21 89bd
00000200: 2495 43bd 7cda 273c 1a23 45be e6bf a23d
00000210: 0071 c73b 07b3 cabd 281f 54be 4fb0 00be
00000220: 20af e9bb 38bf 1fbe 7b9a 103d dcd8 133d
00000230: c7e8 ffbd 9365 1ebe a4e3 1abe e121 003e
00000240: 0566 5cbd 0043 763d 002b 2ebd 2655 873d
00000250: b310 0bbe aff9 0a3e 65f0 bebd b69b b23d
00000260: e3ef 803d d23f 2fbe 54dc 15be f733 4fbe
00000270: 0b73 153e c854 983d 3714 cdbd 1f36 2bbe
00000280: 9352 1a3c 20e5 71be 9ece 39be 7cc6 a53d
00000290: fe89 943d 2604 78bd 404a 49bd d5ee 2b3d
000002a0: 290b 13be 9e41 5c3d c597 69bc 6e81 89be
000002b0: dddb 0f3e 9f25 16bc a9d2 55be 3e12 36be
000002c0: 5758 86be dd5e 9dbd 90a0 bbbd 709b a0bd
000002d0: fd72 5abe 0fdf 073e 67ab 0d3e d057 43bd
000002e0: cb64 46be cb2b a6bd 270f 22be d730 3fbc
000002f0: 6089 5b3c 8792 38be 1ad0 353b 476b 5a3e
00000300: cb3b 3ebf 0a7f 4ebc 1bbc 1d3f 1ec3 1abe
00000310: 5338 afbe 2fac 8cbd a0e4 b5bc 1e28 36bf
00000320: 0e6b ca3d 7acf 4f3d 43b0 11bd 15b4 d83e
00000330: 9f5f 2abd 366a babe e945 943e 8895 afbd
00000340: e18d ae3d 7c27 4f3f faa1 173e 8e1f 36be
00000350: 8763 3ebe 7a22 75bd 0cca 333e 9016 c0bd
00000360: e147 1bbe 583b 6ebd 49ad 1d3e 20e8 fbbe
00000370: 29c2 363e d2aa c43e 51f4 a3be d00c 983c
00000380: 9dde 0fbf dcbb 7abe 6d5e 84be bd86 28be
00000390: 9676 2dbf 9455 80be 8dcd 543e f406 8e3c
000003a0: 287d 7dbd 77fa 25bd e7d9 9c3c 0109 dc3e
000003b0: 18d0 00bf 441b c6bd b031 21bc 6e89 853d
000003c0: 0d39 893e 5b3b b53d 7a65 393e 06c4 88bd
000003d0: d350 bbbc a9eb 5c3e bf61 d73e 348b 00bf
000003e0: c4d7 943e 9f17 1b3c 870c a1bd 294a 92be
000003f0: 7a6f 3c3e b5b8 c63e ce4b 713d af93 283e
-0.67848605 0.2958565 -0.2463519 0.2990685 -1.4119028 -0.27431193 0.110799834 -0.77083707
0.036739454 -0.8835481 0.19868736 -1.5160804 -0.38863397 -0.36120757 -0.25831437 0.15013279
-0.06989825 0.7212766 -0.100167304 -0.12963232 -0.3754006 -0.021467198 -0.40087262 -1.3833314
-0.36112562 0.13762115 0.026993101 0.22591531 0.1728277 -0.9872043 0.39168942 0.2013873
0.17198557 0.5758554 -1.1960481 0.33932203 -0.8808233 0.12040085 0.030844137 -0.54648787
-0.1294758 -0.44493744 0.33935934 -1.8194437 -0.07204217 0.25221217 0.021660898 -0.10766631
-0.23338102 -0.5391971 -0.1926104 0.16372319 0.22633001 0.055714224 -0.783233 -0.7013941
-0.2778605 -0.51456565 -0.012348407 0.17133352 0.09150706 -1.8619204 -0.557442 -0.12979232
-0.66498184 0.3335444 -0.059166383 0.4234481 -0.07527307 -0.26521298 -0.1679147 -0.27554357
-0.12359108 -0.3750717 0.28558043 0.2817326 -0.32214832 -0.7138201 -0.18524906 0.20833714
-0.67747366 0.12993301 0.30372968 0.20135225 -0.6474017 0.58567643 -0.41224366 0.07382598
0.1586554 -0.13501471 0.17018543 -0.20721757 0.057698384 0.25431845 -0.7219553 -0.07407935
0.007096909 0.2869827 -0.13332681 -0.021573788 -0.8741741 0.30092597 -0.12572312 0.22204968
0.05729936 -0.26317358 0.18039817 -0.5011431 -0.06763574 -0.36723378 -0.43245444 0.10955347
-0.35304177 -0.5083309 -0.071468264 -0.012055859 -0.42087096 -0.27985778 -0.3938423 -0.72801334
0.28190216 -0.3444085 0.49611005 0.24103339 -0.21014121 -0.44063428 0.22770993 -0.06695853
-0.047749653 0.010244962 -0.19251671 0.07946758 0.0060864687 -0.09897428 -0.2071501 -0.12567256
-0.007131472 -0.15600288 0.035303574 0.036095485 -0.12495571 -0.15468435 -0.151259 0.12512924
-0.05380823 0.06012249 -0.042521477 0.06608038 -0.13580589 0.13571809 -0.09323195 0.08721106
0.06295755 -0.1711419 -0.1463483 -0.20234667 0.14594667 0.07438046 -0.10013621 -0.16719864
0.009419101 -0.2362256 -0.18145224 0.080944985 0.072528824 -0.06055083 -0.049143076 0.041975815
-0.14359726 0.053773515 -0.014257376 -0.2685656 0.14048715 -0.009164243 -0.20881142 -0.17780396
-0.26239273 -0.07684109 -0.09161484 -0.07842147 -0.21332927 0.13268684 0.13834916 -0.047691166
-0.19374387 -0.081138216 -0.15826093 -0.011669359 0.013399452 -0.18024646 0.0027742446 0.21329986
-0.74309987 -0.012603531 0.6161515 -0.15113494 -0.3422266 -0.06868779 -0.022203743 -0.71154964
0.098837 0.050734974 -0.035568487 0.42324892 -0.041595098 -0.36409158 0.28959587 -0.08573443
0.08523155 0.80919623 0.14807883 -0.17785475 -0.18592654 -0.059847333 0.17557544 -0.093793035
-0.15164138 -0.058162063 0.15398134 -0.49200535 0.17847504 0.38411576 -0.32022336 0.018560797
-0.56199056 -0.24485725 -0.2585329 -0.16457649 -0.6775907 -0.2506529 0.20781536 0.0173373
-0.061886936 -0.040522065 0.019146873 0.4297562 -0.50317526 -0.09673169 -0.009838507 0.06520353
0.2680134 0.08849212 0.18105116 -0.066780135 -0.022865688 0.21574272 0.42066762 -0.5021241
0.29070866 0.009466081 -0.078637175 -0.28572205 0.184019 0.38812795 0.058910184 0.16462587

GAT_layers.1.f.bias f4 [64]
00000000: bf7e 23bc 530c aa3d fb7b 2abe f331 35be
00000010: 26d3 633c bad0 0dbd 071a 26be 7b1d 75bc
00000020: f2f0 bcbe c3b0 963a 7d9b 44bd ab74 b2bb
00000030: bf21 a6be 1f3f 8fbd 77b5 bcbe ac6f 863d
00000040: ffbc cc3d 6870 413c 6f51 c2bc 92e6 1abe
00000050: 50b7 5dbe 245f f9bb a156 273d 3f2e aabe
00000060: c24c f1bc 8d45 8ebc 96bb 90bd 6a93 d33d
00000070: a870 1a3d 4099 c6bc 04d6 44be 45a5 353c
00000080: 7c61 9dbd efaf 0bbf 88de edbc 9807 ab3d
00000090: 6364 e1bd c76e 5abc 2139 24be cc5e 94bb
000000a0: d6f4 d4be 28ba e7bd 4cf3 7cbc 8a29 b3bc
000000b0: 90ad 8bbc 2d1f 7bbe 8741 8abe 8af9 d9bc
000000c0: 25d4 40be b2a7 0a3e 76e6 2abe 21ee baba
000000d0: 6b19 c4be 39b3 13bd c5b9 00bc b38a 4cbc
000000e0: 9b6d f23c 1499 09bc f6f9 abbc dd37 173d
000000f0: 252f 92bc ba39 25bd 1023 89bc b3c0 af3e
-0.009978949 0.08303132 -0.16648857 -0.17694835 0.013905322 -0.034622885 -0.16220866 -0.014960642
-0.36902577 0.0011496771 -0.047999848 -0.005446037 -0.3244762 -0.06994461 -0.36857197 0.065642685
0.09996986 0.011806585 -0.023720471 -0.15127018 -0.2165196 -0.0076102186 0.0408541 -0.33238408
-0.029455546 -0.017367149 -0.07067029 0.103308514 0.037705094 -0.024242997 -0.19222265 0.011086767
-0.07684609 -0.5456533 -0.029036775 0.08351058 -0.11005475 -0.013332075 -0.16037418 -0.004527902
-0.41593045 -0.11314803 -0.015438866 -0.021870393 -0.017050534 -0.24523611 -0.27003118 -0.026608247
-0.18830927 0.13540533 -0.16689476 -0.0014261642 -0.38300642 -0.036059592 -0.007856791 -0.01248424
0.02959328 -0.008398313 -0.020993214 0.03691851 -0.017844746 -0.040338255 -0.016740352 0.34326705

GAT_layers.1.w.weight f4 [1, 64]
00000000: d4ad b8bc ba27 123d 7c83 bc3b 7f90 d6bd
00000010: a1bc aabe cc82 bfbc d021 e93c 7f66 dabd
00000020: 20b9 b93c d839 ffbd 5b43 abbd fd03 ebbd
00000030: 0ddc 91be 47ed bc3d 28b2 23be 6419 60be
00000040: 34fd a6bc 8357 2bbd d515 02bb e663 febd
00000050: 5b8d 93bc 6f9b 0bbd 7fcc 15bd 83b7 88be
00000060: f2c5 e3bc 4f48 98bd bda8 98bd a1c2 74bd
00000070: 6ed0 fcbd 3383 ffbd 5aea 96bd cc47 8d3e
00000080: 5e48 533d 0229 dabe 144e 7abe fb23 093f
00000090: 356d 13be 434f 92be 0003 61bb 20bd c33e
000000a0: 4c2a 863e b712 59be 3452 f4be 3947 eebd
000000b0: 3aa4 b23d 762e 8bbe 9d47 9bbe 42fe 213e
000000c0: 125c eabc ed21 c6be 6b37 d33d 8416 303e
000000d0: 57a9 71be ea60 963d 99c8 0d3f fa88 843d
000000e0: e9ec 8b3d bc2c c83c 9cdc 84be 1244 603d
000000f0: 4837 093d 912a 81bd fb21 d93e 4505 88be
-0.022543825 0.035682417 0.005752979 -0.10476779 -0.33347037 -0.023377798 0.028458506 -0.10664081
0.022671282 -0.12462205 -0.083624564 -0.1147537 -0.28488198 0.092249446 -0.1598593 -0.21884686
-0.020384409 -0.041831505 -0.0019849439 -0.12421398 -0.01801174 -0.03408378 -0.036571976 -0.26702508
-0.027804349 -0.07435667 -0.07454059 -0.059755925 -0.12344442 -0.12476196 -0.07368918 0.2759384
0.051582687 -0.4260941 -0.24443847 0.53570527 -0.14397128 -0.28576097 -0.0034334064 0.38230228
0.26204145 -0.21198545 -0.47718966 -0.116346784 0.0872273 -0.27183884 -0.30328074 0.15819648
-0.028608356 -0.38697758 0.103133045 0.17196089 -0.23599754 0.07342704 0.5538421 0.06471439
0.068322964 0.024435394 -0.25949562 0.054752417 0.033499986 -0.06306947 0.42408738 -0.2656652

GAT_layers.2.f.weight f4 [64, 128]
00000000: e1ca 84bf ccf3 ce3c ae27 56bc dc7d 19be
00000010: 74c4 06bf 6c00 0dbf ddf8 dfbe 7e61 26be
00000020: 3887 f7bd 6cf1 91bf 220a d6be 3688 cd3e
00000030: e03b 49bf aace 20be 80bc 72bf dde4 44bf
00000040: ade6 e5bd 833f 623e 1a1d d33e 8bd7 833e
00000050: 77b9 6dbd e0a3 3ebf 35e1 27bf 84e7 10bf
00000060: 40a2 e8bd eafd f0be 61d6 e93d 4bc1 09be
00000070: 3770 8d3e a570 85bf bc4b ea3b 7d2c a4be
00000080: d9b2 b23c 0508 85bf 3be1 f0be 869c 87be
00000090: 269e ac3d 6aa4 853d aba0 103e bf22 8f3e
000000a0: 0f06 d2bd b81d 9e3d 4682 1ebf cd68 283e
000000b0: 7af2 143f 11ea b73c 1528 dfbe d64b 613f
000000c0: 6776 533e e281 e63e 264b 843f 0355 cabe
000000d0: 5935 3c3e 9990 e63c 043f 3fbd 8893 40be
000000e0: 8dd3 e7be 8b26 e5bd a6ea 933a 1fad 53be
000000f0: 39d4 4ebc 1d86 ebbe 7028 88be 26e4 b53e
00000100: c2d5 823e c9d9 ac3e 78d9 103e 1430 c63e
00000110: a729 79be 6dcd 9abe eef3 f7ba b8ea b13e
00000120: ba0b bbbe 5a2e 84bf 0738 8cbf 4897 67bf
00000130: 93f2 b63e 521a 77bd 5180 7abf 8aed cabc
00000140: 17aa c4bc c00b af3c 8828 683e 2bd7 023e
00000150: 3f00 bc3e db27 233e 201e 10c0 32c4 a5be
00000160: cb06 803e eeab e13d b847 15be 9a4c 483e
00000170: 065b 77be 78a7 a2be 1a6e ff3d eee0 0dbf
00000180: 493b cfbd 0092 bfbf 2a84 64bc c39d 48bf
00000190: 846a 083d 8538 19bf c01e 9bbd 76bf ec3d
000001a0: c434 e5bb 6117 4d3e 1a84 95bf e788 0f3e
000001b0: 3924 ec3c abb1 5ebe c5e5 1fbf 93c6 c3be
000001c0: fdbb 88bf 6391 763f 726f 543c febc 573d
000001d0: f092 2ebe b4f0 a43e bc1e 8c3e 8d1f 4bbe
000001e0: d334 33ba 2b30 843d 5631 ff3e 5ac8 a83e
000001f0: 8d46 db3e 1d78 8ebe 6b2c 04bf f032 aabf
00000200: f10a 213f 4dd2 a2bd f5f5 44bc 59ae 673c
00000210: 2b0b 0abf 954c c43d bb3e 74bc 9238 823e
00000220: fddb 96bf 2762 57bf ca09 38bf dda9 afbf
00000230: b226 ccbf ece4 7a3d 418a 843c c2a9 f8bd
00000240: 67ab 633d ab61 f13e d9cc acbe 5161 a33e
00000250: 1589 abbf f516 dd3d 75e4 e43d 246e c3be
00000260: cb7e 633e 206b 49bf c202 34bd 2a4e 54be
00000270: 995f e7bd 8d61 6ebf 1d88 cabf d68f c5bf
00000280: 6f16 36bf 7717 1fc0 afe9 eabe 1a14 bb3d
00000290: 0e19 3e3e 8756 8ebe 84e9 0dbd 96bc c53d
000002a0: 2353 44bf afcb c43d e2ff 563b 4f5a febf
000002b0: 5997 083e a3b6 14bf fe0f 4cbf abec 3b3f
000002c0: c060 c13e 8766 6f3e 89dc 7ebf fa72 b4bc
000002d0: 3cb3 75be 676a 873e 2709 f23e 1e29 0a3e
000002e0: 13f5 a7bd 8a32 1cbf 2bb1 49bf b5f1 9d3e
000002f0: 9cb9 743c aaf6 793d 8012 173e c5bb c4bc
00000300: 653b 28be ec92 8abb fb3b bf3d b27f ad3e
00000310: 55ca af3d 2c9d 0ebd 76ad 793e 36b9 723e
00000320: 19af 12bf 4fea 50bf 4fcf 123f 671e febf
00000330: 691c d9be ebe5 8d3d b083 293f ff8d acbe
00000340: b88c 12be fab8 533e 7289 42be e8d5 2d3f
00000350: 7b40 1fc0 1aa8 a0bd ae5e bbbd e4e0 aabf
00000360: 0e72 a7bc 2576 a2bf 440f d33c 5853 313c
00000370: 4c24 50be e7cb 80bf d8d7 06c0 ff2e 44bf
00000380: 03e3 3dbe 7099 6bbf d9cf d93d e3bb de3c
00000390: c6c5 8a3d d072 a6be e8f8 dabc aede 1a3f
000003a0: 936c 573e 7922 29be c599 8abf 0743 adbf
000003b0: 6266 f43d 70ac 30bf 9a46 87be 796d cb3e
000003c0: 88f6 733d b722 a5bd f602 86bf 79da 9fbd
000003d0: be06 00be 66c3 703e 983f 3f3e 1c23 87bd
000003e0: 089c 0cbc 09d7 d1be 20d8 743e d11e fd3e
000003f0: a22a 17bd bcfb a2be 371d 29bd fbff b33e
-1.0374414 0.025262736 -0.013070984 -0.14989418 -0.52643514 -0.5507877 -0.43744555 -0.16248128
-0.12086338 -1.1401801 -0.41804606 0.40142983 -0.78606987 -0.15703836 -0.9481888 -0.7691172
-0.112256385 0.2209454 0.4123314 0.25750384 -0.0580382 -0.74468803 -0.65578014 -0.56603265
-0.11359072 -0.4706872 0.11417843 -0.13452642 0.27624676 -1.0425001 0.0071501415 -0.32065192
0.021813797 -1.0393072 -0.47046837 -0.26486605 0.08428602 0.065255 0.1412379 0.27956197
-0.10255062 0.07720512 -0.6191753 0.16446228 0.5818249 0.022450479 -0.43585268 0.8800634
0.20650636 0.45020968 1.0335433 -0.39517984 0.18379726 0.028145121 -0.046690956 -0.18806279
-0.45278588 -0.11188992 0.0011285141 -0.20671509 -0.01262384 -0.46000758 -0.2659335 0.35525626
0.2555371 0.33759907 0.14145458 0.38708556 -0.24332295 -0.30234852 -0.0018917301 0.3474939
-0.36532384 -1.0326645 -1.0954598 -0.9046521 0.35731944 -0.060327835 -0.97852045 -0.02477147
-0.024006886 0.021367908 0.22671711 0.12777393 0.36718938 0.15933172 -2.2518387 -0.32376248
0.25005183 0.11019121 -0.1457814 0.19560471 -0.24155816 -0.31768394 0.12472172 -0.5542134
-0.101187296 -1.4966431 -0.013947526 -0.78365725 0.033304706 -0.59851867 -0.075742245 0.11559956
-0.0069948155 0.2002845 -1.1680939 0.14017068 0.028825866 -0.21747462 -0.62459975 -0.38237438
-1.068237 0.9631559 0.012966024 0.05267047 -0.1704824 0.32214892 0.27367198 -0.19836254
-0.00068361795 0.064545 0.49842328 0.32965356 0.42827263 -0.27826014 -0.51630276 -1.3296795
0.6290732 -0.07950268 -0.012021531 0.014140689 -0.5392329 0.09584919 -0.014907534 0.25433785
-1.1785885 -0.84134144 -0.71889937 -1.3723713 -1.5949309 0.061253473 0.016179206 -0.12141754
0.055583384 0.47144827 -0.33750036 0.31910184 -1.3401209 0.10795394 0.11176387 -0.38169968
0.22216336 -0.78679085 -0.043947943 -0.20732942 -0.11297531 -0.931176 -1.5822788 -1.543452
-0.7112798 -2.4858072 -0.4588141 0.091346934 0.18564245 -0.2780039 -0.034646526 0.096551105
-0.76689357 0.09609162 0.0032806327 -1.987131 0.13338985 -0.5809118 -0.797119 0.73408
0.37769127 0.23378955 -0.9955526 -0.022027481 -0.23994154 0.26448366 0.47272608 0.13492247
-0.08201041 -0.61014616 -0.7878596 0.3084847 0.014936831 0.061026253 0.14753151 -0.024015317
-0.16428907 -0.0042289402 0.09337612 0.33886486 0.08583514 -0.03481786 0.24382576 0.23703465
-0.5729843 -0.81607527 0.5734758 -1.9853028 -0.42404488 0.06928619 0.66216564 -0.33702084
-0.14311492 0.20676032 -0.18997744 0.6790452 -2.4883106 -0.07844563 -0.09148918 -1.3349881
-0.020440128 -1.2692305 0.025764115 0.010823093 -0.20326346 -1.0062226 -2.106924 -0.7663421
-0.1854363 -0.92031 0.10635347 0.0271892 0.067760035 -0.3250947 -0.026730016 0.6049603
0.21037512 -0.16517057 -1.0828177 -1.353608 0.119335905 -0.6901312 -0.26421052 0.39731959
0.059561282 -0.08063262 -1.0469654 -0.07805342 -0.12502572 0.23512039 0.18676603 -0.065984935
-0.008582123 -0.4098437 0.2391057 0.49437574 -0.036905892 -0.31832683 -0.041287627 0.35156235

GAT_layers.2.f.bias f4 [64]
00000000: 38a7 99bd 3b08 5cbe b286 c63d fff5 9c3e
00000010: d9fc 3fbe 9db0 8e3e e56f 603d b2ba 2d3e
00000020: a454 8e3e 3542 543e bbda b9be 0d5b 6c3e
00000030: 8099 27bb 0094 0ebe ad90 99bd 84b3 1fbd
00000040: e037 25be feaf 8f3c 0dcd b5bd fec8 2ebd
00000050: 3824 df3d 1653 adbd 4353 703e f972 debd
00000060: a233 83bc a619 203e 6b8f 2a3d 082d 9bbe
00000070: d0f3 2c3e 3083 be3d de02 733e 571f 5ebe
00000080: 4d4f 21be a044 f9bd cb3d 81be 286b ff3d
00000090: 91f1 29be 68c2 753e 3afb 153e e729 3ebe
000000a0: d086 c13d 6cc9 0a3e 5894 203e d5ea 883e
000000b0: 9c04 40be 8a48 9f3d 34e1 693e 84cf 37be
000000c0: 740e 2b3c 362c 19be 1db6 a7bd 2c06 523b
000000d0: c2ce 14bd fd25 693d 7e25 013e 3f04 693d
000000e0: c292 273c 6993 babe 87db 9dbe 51b2 1ebe
000000f0: 4f6b 35be 005c ed3d 235d ddbd 77a3 82be
-0.075025976 -0.21487515 0.0969366 0.3065643 -0.18748797 0.2786912 0.05479421 0.1696575
0.2779895 0.20728381 -0.3629969 0.23081608 -0.002557367 -0.13923645 -0.07498298 -0.03898956
-0.16134596 0.017539974 -0.08877001 -0.04267215 0.1089558 -0.08463113 0.23469262 -0.10861773
-0.016015831 0.15634784 0.04164068 -0.30307794 0.16889882 0.09302366 0.23731562 -0.21691643
-0.15752907 -0.12171292 -0.25242457 0.1247161 -0.16596057 0.23999941 0.14646617 -0.18570672
0.094495416 0.13553399 0.15681589 0.26741663 -0.18751758 0.077775076 0.22839814 -0.17950255
0.010440458 -0.14958271 -0.08189032 0.0032047136 -0.036329992 0.056920994 0.12611958 0.056888815
0.010227861 -0.3644059 -0.3083155 -0.1549771 -0.17716716 0.11589813 -0.1080878 -0.2551534

GAT_layers.2.w.weight f4 [1, 128]
00000000: bb20 8dbe 525d 85bf dc44 c3bc d5d2 02bf
00000010: c180 babf b917 78bf bdd6 46bf 82b9 243d
00000020: ce42 acbe f8ef 69bf 0362 ea3d c86b 2cbf
00000030: 1dda dbbe a098 49be d7d5 e43d a476 fabe
00000040: 5656 573f af81 08bf 5ba3 e73d c89f a93d
00000050: ae68 afbe d78f a93d a796 50bf 799e ccbc
00000060: cc55 3ebf 6cb4 26bf 2579 78be a4dd 34bf
00000070: 2ee7 1f3e 8b76 57bf 6c9f 02bf d3ff 0dbf
00000080: cb35 9abc 91dd bdbe 2c3b af3d e479 a33f
00000090: 4fe8 63bd 986c ad3e 91be 90bd a373 053f
000000a0: fc77 b9bf b204 61be a5ac 4abf 7887 893f
000000b0: 6686 a03d c45f 23bf 8a0b 00bf 46e4 2fbf
000000c0: 1037 8cbf 9371 953f ced2 f3bf c80d 81bf
000000d0: 6ecd c53e 1d91 803e 6028 46c0 8d44 4f3f
000000e0: 050a 7ebb 62a1 39be ce1f d63c 8ac6 673f
000000f0: 5242 2bbf 40dc 89be 7efe a03e d8c3 2c3f
00000100: 0047 633e 1c13 c0be da3c 4cbe 8ae0 a83e
00000110: 5320 dbbd 402c 1cc0 a987 bd3c 8e03 9bbe
00000120: 148f 2abe 42e7 00be 7251 bbbe f08c 29bf
00000130: ee0c 5cbd b942 a9bd 15c7 c6be f8b0 e4bd
00000140: 6c24 103f aeeb b2be 94f2 293f b5d9 9f3f
00000150: c729 8d3e 1a5e 753f d209 f83e f9f1 91bf
00000160: a230 0d3e dc55 25bf e4f4 2ebe ba5a aa3e
00000170: 3043 7ebf e827 0ebe 4287 47bf 98b2 debe
00000180: d428 66bd 6126 d93d b9e9 e83d 7b91 e03d
00000190: fa79 9a3d 25db 9dbd 1a91 50be 3b90 1b3f
000001a0: b266 323d c481 9f3f 4c8e d2be d4f8 e5be
000001b0: 7e28 8bbe 7414 c3bd b045 bdbe e92b 543e
000001c0: eb1a 91bd 3192 1dbf a21a 7a3c 9b90 02bc
000001d0: 1f27 82be 18a7 7b3f 172b 25be 813b 4c3f
000001e0: e93f b93e 951a 0d3f aa57 113e 43cc cebe
000001f0: 4622 46bf 45d0 7abd 44ee 2c3f ac6e c73e
-0.27564034 -1.0419104 -0.023836546 -0.51102954 -1.4570543 -0.969112 -0.77671415 0.040215977
-0.33644718 -0.9138179 0.114444755 -0.6735196 -0.42939845 -0.19687128 0.11173599 -0.4891864
0.84116113 -0.5332288 0.113104545 0.08282429 -0.34259552 0.082793884 -0.8147988 -0.02497791
-0.74349666 -0.6511905 -0.24264963 -0.70650697 0.15615532 -0.8416526 -0.5102451 -0.5546848
-0.018824479 -0.37083104 0.08556208 1.2771573 -0.05564147 0.33871913 -0.07067598 0.5212957
-1.4489741 -0.21974447 -0.79169685 1.0744467 0.078381345 -0.63818 -0.5001761 -0.6870769
-1.0954304 1.1675285 -1.9048707 -1.0082331 0.38633293 0.25110713 -3.0962143 0.80963975
-0.0038763296 -0.18127969 0.026138213 0.9053732 -0.6689807 -0.2692585 0.31444162 0.67486334
0.22195053 -0.3751458 -0.19945088 0.3298381 -0.10699525 -2.4402008 0.023135977 -0.3027615
-0.16656142 -0.12588218 -0.36585575 -0.6623068 -0.05372327 -0.082646795 -0.38823763 -0.111665666
0.56305575 -0.34945434 0.6638577 1.2488314 0.27570936 0.9584671 0.48444992 -1.1401969
0.13788083 -0.64584136 -0.17085606 0.33272344 -0.9932127 -0.1388241 -0.7794076 -0.4349563
-0.05619128 0.10603023 0.11372704 0.10965248 0.075427964 -0.07707814 -0.20367852 0.60766953
0.04355497 1.2461476 -0.4112419 -0.44916403 -0.2717933 -0.095253855 -0.3696723 0.20719875
-0.07085212 -0.61551195 0.015265139 -0.007969047 -0.25420472 0.9830184 -0.16129719 0.79778296
0.36181572 0.55118686 0.14193597 -0.40390214 -0.7739605 -0.061233778 0.67551064 0.38951623

MLP_layers.0.weight f4 [32, 64]
00000000: 0057 d83c a848 6bbd 8c5c 1f3d 64a4 1cbe
00000010: c917 92bc 0376 26be 7a56 dabd c660 ac3c
00000020: 3fc3 a3bc 03ce 453a 235a 3bbe 3ccf c9bd
00000030: 10d2 ad3c fa36 abbd e157 45bc 7f12 1abe
00000040: 7a09 07bc 8922 f3bc 9c72 94bd 326c deba
00000050: 32c9 02be 7de5 e53d eb68 5cbe 3c25 153d
00000060: 4350 45bd e8a3 28be a2e1 3abe ad1b 173c
00000070: 2d1f b7bb 116e 47be 93dc 13be 2978 3abe
00000080: 1f87 09be 69b4 07be 0ccd 203d fc54 81be
00000090: d1e0 5ebe ed61 b4bd bd4f 9fbd 4b3a bcbd
000000a0: ba37 cebc 26c5 06be e0e9 be3b 9d9b 76be
000000b0: b405 a73b d071 eebd 0f79 70bc cf29 54be
000000c0: 88ec edbb e132 cabc 91b0 b5bc 6162 19bc
000000d0: 5280 16be 5bbc a13b 1871 00be b139 afbd
000000e0: eecc 11bd 82dc 95bc bec4 03bc 5069 7fbc
000000f0: 8e94 1dbe fd59 0cbd 106f 4cbe ee56 f9bc
00000100: f9f6 a23e d37a ebbc 312e 3e3e 3650 3cbf
00000110: 5266 753e ba47 413e 0fa5 23be 93f3 c8be
00000120: 5d7f 90be 0b7e 333d 6c01 38bf 4741 c73e
00000130: 8be1 99bd 78ed 5dbd 4c8a 5ebe 9650 30bf
00000140: 8fae b33e ec53 e73c b93f 2bbf cde3 a1bd
00000150: 7d36 9e3d 3aa7 31bc 0bec a33b f6e3 02be
00000160: 4d62 39bf 905f 1abf 9ced aa3e 6e22 073f
00000170: e049 33bd a1be cbbc 286d e5bd eb7e 6f3e
00000180: 174b 2d3e e8ee a1bd 80c8 cfbd ac90 41bd
00000190: 4525 2abd 865e 403e 0634 f63b 53cf 8bbe
000001a0: 12e4 eebe 3812 ad3e 44d6 803e bc55 763e
000001b0: 0695 c9be cf84 9a3c b648 db3e 123b 04bf
000001c0: 2bd3 423c 54ce 4b3e 1e09 f93c 74a8 ef3d
000001d0: b0be 69bd cd62 2dbf bd14 b8be 642b 6cbe
000001e0: 7783 d03c 2aae 94be a086 873e 5613 5cbe
000001f0: 4169 fe3d 75fd f7bd 9a7c bc3e d8e8 2ebf
00000200: 9c43 f8be 8b6d 86be 7e62 283f 1d80 c03e
00000210: 7ac0 353e 6cd4 89be 10d5 a8be 8068 a93e
00000220: dc20 823e 0545 93be 10cc 77be cb75 01be
00000230: 603f 173e 2a79 2639 de63 9abe a79d 5dbd
00000240: d3c9 8a3e 8927 17bf f44a 033f f7e8 5cbe
00000250: a3dd 493e 35ba 0c3e 3ddb da3d 9f8a 993e
00000260: 86bc 743e 8a30 6a3d 5d43 31be 6b41 95be
00000270: 085c 0a3f e08d 1a3e 652a ee3d 7fcc 143e
00000280: b3d2 81bc 4193 83bd c92c 5c3e 9467 113e
00000290: 4128 b63c 885b 7abe 6949 74bd 7f6c 4dbe
000002a0: b29b e03c 7961 98bf 1cb5 013f f02f 9c3e
000002b0: 637d dc3c 8952 573e 3a83 75bd 51fb 653e
000002c0: 57d8 163f 7bfb b23c a931 32bd 119a dd3d
000002d0: 182a 4a3d 4c62 333f c558 04bd a007 aa3d
000002e0: b28b 18bf 8e85 87be bc77 f7be da87 3e3e
000002f0: 47c4 1bbf 6a32 953d 9786 5dbf 3453 7a3d
00000300: 3261 d7bd ae09 7a3e 6d06 fbbd b004 36bf
00000310: efb5 13bf 442d 733e c43a a53e d3f2 81be
00000320: 0bad 6abe 7314 053f 10da 0a3f 2e84 7e3d
00000330: 97bd c8bd 24ea adbd 181a a2bd 8ad0 623e
00000340: b13c 1c3e 63d0 6a3e 0cc0 43be 6ca9 c23d
00000350: 6e5f 9d3e d71d b33d d086 453e 7380 bf3d
00000360: a10f 523e 2149 fcbd f6f7 eebd 698c 01bf
00000370: 6ba5 a03d f9fe a93d 6930 a33e ca0b 133f
00000380: 836c 82bb f34f 323c f129 083e 99d3 e03c
00000390: 2dc0 f3bb 7081 4abd 0076 4ebe 6024 983e
000003a0: c70c aa3e 98f8 423c 12e7 bc3d fc17 18bc
000003b0: fb43 06bf f19d a7bd 07d9 90bf df7c 593e
000003c0: 3d12 c63e 78b0 73be 709e 203e 3307 8c3e
000003d0: b682 803d 9501 b2be ff78 e5be f66e 2e3f
000003e0: e577 c1be 8105 453e a13d 9fbd 4293 e43b
000003f0: 7975 463e 7dd6 d1be a9a1 a63d 24e1 12bb
0.026408672 -0.057442337 0.03890662 -0.15297085 -0.017833607 -0.16255955 -0.10661025 0.021042239
-0.019990562 0.0007545652 -0.18296103 -0.0985398 0.02121833 -0.08360095 -0.012044878 -0.15046118
-0.0082420055 -0.029679554 -0.072484225 -0.00169695 -0.12772062 0.11225412 -0.21524398 0.036412463
-0.048172247 -0.16468775 -0.18250135 0.009222907 -0.0055884332 -0.19475581 -0.14439611 -0.182099
-0.13430451 -0.13252415 0.039258048 -0.2526015 -0.21765448 -0.0880774 -0.07778881 -0.09190806
-0.025173057 -0.13161144 0.00582622 -0.240828 0.0050971154 -0.11642802 -0.0146773 -0.20719074
-0.0072608627 -0.024682464 -0.02217892 -0.009361834 -0.14697388 0.004935784 -0.12543142 -0.08555926
-0.035595827 -0.018293623 -0.008042512 -0.015589073 -0.153887 -0.034265507 -0.19964242 -0.03043696
0.3182905 -0.02874509 0.18572308 -0.7355989 0.23964813 0.18875018 -0.15980934 -0.39248332
-0.2822217 0.043821376 -0.7187717 0.3891699 -0.07513722 -0.054181546 -0.21732444 -0.68872964
0.35094115 0.02823826 -0.6689411 -0.07904778 0.077252366 -0.010843093 0.0050025037 -0.12782273
-0.7241562 -0.60302067 0.33384407 0.5278691 -0.043771625 -0.024871172 -0.112024605 0.23388259
0.16923176 -0.07906896 -0.10145664 -0.04725711 -0.04153945 0.18786058 0.007513526 -0.27306613
-0.4665838 0.33802962 0.25163472 0.24056143 -0.39371508 0.018862156 0.42828912 -0.51652634
0.011891167 0.19902927 0.030399855 0.11702052 -0.05706662 -0.67728883 -0.35953322 -0.23063427
0.025453312 -0.29039127 0.26469898 -0.21491751 0.12422419 -0.1210889 0.36813813 -0.6832404
-0.48489082 -0.2625545 0.6577529 0.37597743 0.17749205 -0.26919878 -0.32975054 0.3308754
0.25415695 -0.28763595 -0.24198937 -0.1264259 0.1477027 0.00015876131 -0.30154318 -0.054105427
0.27107105 -0.590447 0.51286244 -0.21573244 0.19713454 0.13742907 0.10686348 0.29988572
0.23900041 0.057175197 -0.17310853 -0.29151472 0.5404668 0.15093184 0.1162918 0.14531134
-0.01584754 -0.06424571 0.21501459 0.14199668 0.022235991 -0.24448979 -0.059640322 -0.20060919
0.027417991 -1.1904746 0.50666976 0.30505323 0.026915258 0.21027578 -0.0599396 0.22459151
0.5892386 0.02184843 -0.04350439 0.108204015 0.04935655 0.70071864 -0.03231122 0.083022356
-0.5958816 -0.26469082 -0.48333538 0.18606511 -0.6084637 0.07285006 -0.8653349 0.061114505
-0.105165854 0.24417755 -0.12257085 -0.711009 -0.57699484 0.23747736 0.32271397 -0.25380573
-0.22917573 0.5198433 0.54238987 0.062137775 -0.098017864 -0.084919244 -0.07915133 0.22149864
0.15257527 0.22931056 -0.19116229 0.09504971 0.3073687 0.08745926 0.19289708 0.093506716
0.20513774 -0.12318636 -0.116683885 -0.50604874 0.07844051 0.08300585 0.31872872 0.57439864
-0.0039802208 0.010883319 0.1329725 0.027444648 -0.0074386806 -0.049439847 -0.20162201 0.29715252
0.33212873 0.01190009 0.09223761 -0.009283062 -0.5244748 -0.08184422 -1.1316231 0.21239041
0.3868579 -0.23797786 0.15685439 0.27349243 0.06274931 -0.34766832 -0.44818875 0.6813806
-0.37786785 0.19240381 -0.07775427 0.0069755623 0.1938075 -0.40983954 0.08136303 -0.0022412026

MLP_layers.0.bias f4 [32]
00000000: 2e0c 82bc 548c 20bd ae8e 98be 9052 7a3e
00000010: 661b 2abd 467f e9bd 414c db3e 85de f63e
00000020: ae28 943d 201a f5bd 3643 8c3e d20d 1c3e
00000030: 0bd5 d63d e43e 14be ae9a 40bd fab0 50bd
00000040: a081 8dba 6535 86be e6a5 dc3c bf59 ffbd
00000050: 741b 11bd 64d9 733e 9feb 5bbd 5c10 eb3e
00000060: 8782 d23d f318 813e 3cd1 5a3e 8537 223d
00000070: 71a2 edbc c6d8 d3be 85a2 09be 6340 96bd
-0.015874948 -0.039196327 -0.29796356 0.24445558 -0.041530035 -0.114012286 0.42831615 0.48216644
0.072343215 -0.119678736 0.27395028 0.15239647 0.104898535 -0.14477116 -0.047022514 -0.050950028
-0.0010796078 -0.26212612 0.026934575 -0.124682896 -0.035426572 0.23813397 -0.053691503 0.4591092
0.10278802 0.25214347 0.21368879 0.03960373 -0.029008122 -0.41376323 -0.13440903 -0.073364995

MLP_layers.1.weight f4 [10, 32]
00000000: 2d68 dfbb 5259 90be 0359 42be c230 373e
00000010: 2199 08bf 9311 be3d eab9 0cbf da9a 5bbe
00000020: bc80 603e d3d5 7ebc c09e 92bd 3f0a 2dbe
00000030: 488e 393c da13 4fbd f498 1c3e 1ee7 403e
00000040: 6504 32bd 4469 553d 64bd 06bf d727 4cbd
00000050: 48ec cabd a383 05bf 503e 8fbe eddf 47be
00000060: 0ddb d63e 3e1d fd3b 781c 07bf 9743 da3d
00000070: cc04 f0bd b741 923c 40d7 17be c964 73be
00000080: 801e c13c 8106 e43d 83b7 67be a521 30bf
00000090: c269 9b3e 2333 8cbe 074c 803e f6ec 323d
000000a0: 1af2 5ebe 6942 1c3d 63f6 c93e e34d 48be
000000b0: 83ed 9abf 02fd 7fbd 305f d33e 2193 24bf
000000c0: 9b59 8f3d 3a34 1cbe a0a0 71bf 18bd d7bd
000000d0: 549c 4cbe 2ad7 043e 9ff4 f8bd 71c6 6cbe
000000e0: 357e 0abe 2c42 a63e 8e12 a9be 3d04 9fbd
000000f0: a934 963d c5e6 083d 0a45 80bc b5cc f8be
00000100: 5884 33be b57a 76be 608c c3bd 3e34 31be
00000110: 4009 35be bd71 2a3e c425 babe 26c2 f3bc
00000120: c4ff 64bd df49 f6bd 8abc b33d 6725 e1bd
00000130: a2b1 14be c804 22be 55c4 8bbd fadf 0bbe
00000140: d51a b4b8 1c64 09bd ddc2 5a3e 0fb2 113e
00000150: abc6 673e 5180 56bf 2670 f7be 71f1 733e
00000160: 998b 8abd 1eed c33d d9ec 75be ba7e d53c
00000170: af2b d83b d479 6cbd 2175 78bd 60dc a8be
00000180: f50a df3d be8d 59be dd53 853e a415 15bf
00000190: e531 b9bd 25f0 ebbc d8b3 71c0 c64e 95be
000001a0: 8e58 c7bd 3481 47be ab84 773e f839 06be
000001b0: 99e8 c4bf a0ad ca3d 10f1 9f3c 9f36 213e
000001c0: 01a4 9a3c 7d40 873c e910 3dbf 7a9e 44be
000001d0: 97c6 c5bd 3109 52bf 48ae d5be 6ca3 163e
000001e0: b61c 1bbe fe5a 35be ad79 b9bb 1e2a 33bd
000001f0: ceb7 3cbd a3f0 993e b795 343d e90d 10bf
00000200: 75ec b6bd 61c5 39bf 188a cdbd 20c8 a3be
00000210: 2fdb 18be 47bc 35be e5ae 16bd 3d6c f3bd
00000220: 4ac2 ffbe 1780 743d fdce 5dbe 7246 503e
00000230: bdb0 e23d 98d2 153d 0602 9abd 72af 0cbe
00000240: 407c 69bd f874 fabd 45b7 833e f3fd ae3c
00000250: 472c 843e bad9 1cbf c9cb 89be 144e e8bc
00000260: 1e6e aabe 2ff2 cbbe c1d3 ecbe dfe2 86be
00000270: 9100 0ebe e35e c93e a9e4 91bd be89 b2be
00000280: 4a90 0e3e 4a4b 1bc0 f67b 113e cab6 18bf
00000290: 95e9 143e 5af0 1abd fad6 edbb 91a8 8e3e
000002a0: 09ab bc3e 6773 18be 0c9e fcbe 29af cebe
000002b0: 7014 93bf 053e 12bd 832a 23bf 5d4b a7be
000002c0: 7042 613d 76bc febd 6c89 45be 634e 5fbd
000002d0: 9328 0ebf 5008 22c0 9d0b 983e 2bea c8be
000002e0: 14b5 81be 5de1 a0bf 4f45 c4be 963e aabd
000002f0: 85b5 1fbc 7deb b1be 0876 66bc 0db9 793e
00000300: fc5c 88bb eae0 6abd 7795 a8be 3404 14bd
00000310: 2d00 68be dfb2 8ebe 523a 46be 1b09 73be
00000320: 0708 d93e 652a a1bc 9451 36be 4a99 cd3c
00000330: 490d 89be 6893 ec3d c219 cd3b 6b50 823e
00000340: f42c 2dbd 9a3e d53d 0666 4b3e 8f3a fe3d
00000350: a217 b43d 49b0 50be 1451 cabe 2d1f e83d
00000360: 4216 b53e 3e52 dcbe 69c3 8f3d 3561 463d
00000370: a29b cfbd 3892 893d d894 8bbd a13e 63be
00000380: 2e78 9cbd 09b3 adbf c068 31bd eae2 f2be
00000390: 4a82 8d3e 6c1f 9c3e 3865 10bf 0e64 3bbe
000003a0: 188e bebc 6577 483d a0cc c6c0 37f1 273e
000003b0: 79fd b2bf 36c4 653d dbd6 b0bf 6f17 18bf
000003c0: b199 d6bd 83e7 d13d 3bf5 0ebd d96d 713d
000003d0: 6621 bbbe d67f 11c0 bd0e a63d ea52 28bf
000003e0: 43db 81bf 038c 85c0 e0f8 4ebf df4d e1bd
000003f0: 9a88 b5bd 06f4 babd 413b 1b3e 38b3 693e
-0.0068178386 -0.28193146 -0.18979268 0.17889693 -0.53358656 0.09280696 -0.5497118 -0.2144579
0.21924108 -0.015553909 -0.071591854 -0.1689844 0.011325426 -0.05055604 0.15292722 0.18838164
-0.043461222 0.052102342 -0.5263274 -0.04984268 -0.09908348 -0.52153987 -0.27977228 -0.19519015
0.41963997 0.007724433 -0.52777815 0.10657423 -0.11719665 0.0178536 -0.14828205 -0.23768915
0.023574114 0.11134053 -0.22628598 -0.6880134 0.30354124 -0.27382764 0.25058004 0.043683015
-0.21772042 0.03814927 0.3944579 -0.19560961 -1.2103733 -0.062497146 0.4128356 -0.64287
0.06999513 -0.15254298 -0.9438572 -0.10534114 -0.1998151 0.12972704 -0.12156033 -0.23122574
-0.13524707 0.3247236 -0.3302197 -0.0776448 0.07334263 0.033423204 -0.01565792 -0.4859368
-0.17530954 -0.24070247 -0.09548259 -0.17305085 -0.1767931 0.1664495 -0.36356938 -0.029755663
-0.05590798 -0.120258085 0.08776195 -0.10993462 -0.14520887 -0.15822136 -0.06824557 -0.13659659
-8.588067e-05 -0.033542737 0.21363397 0.1422808 0.2263438 -0.83789545 -0.4832775 0.23822571
-0.067649074 0.09566711 -0.24016131 0.026061404 0.0065970044 -0.05773337 -0.060658578 -0.32980633
0.10890762 -0.21245477 0.26040545 -0.58236146 -0.0904272 -0.028801033 -3.7766018 -0.29161662
-0.09733687 -0.19482881 0.24171703 -0.13108051 -1.5383483 0.098963976 0.019524127 0.15743493
0.018877031 0.016510243 -0.7385393 -0.19201079 -0.09657019 -0.82045275 -0.4173453 0.14710778
-0.15147671 -0.17710492 -0.005660257 -0.043741338 -0.046073727 0.30066404 0.04408809 -0.56271225
-0.08931819 -0.725668 -0.10036105 -0.3198862 -0.14927362 -0.17747603 -0.036787886 -0.11885879
-0.49952918 0.05969247 -0.21660991 0.20339373 0.110688664 0.03657779 -0.07519917 -0.13738802
-0.05700326 -0.12229341 0.2572576 0.021361327 0.2581503 -0.61269724 -0.26913288 -0.028357543
-0.33287138 -0.3983321 -0.46255305 -0.26344964 -0.13867404 0.39330205 -0.071236916 -0.34870714
0.1392223 -2.4264703 0.14207444 -0.59653914 0.1454223 -0.037826873 -0.007258293 0.2786298
0.3684924 -0.14887773 -0.4933933 -0.40368012 -1.1490612 -0.035703678 -0.6373674 -0.32674685
0.054995 -0.1243829 -0.19290704 -0.054518115 -0.5553066 -2.5317574 0.2969636 -0.39241156
-0.25333464 -1.2568775 -0.38334128 -0.083127186 -0.0097478675 -0.34749976 -0.014066227 0.24386998
-0.004161475 -0.0573434 -0.32926533 -0.03613682 -0.22656317 -0.27870843 -0.19358185 -0.23733942
0.42388937 -0.019673536 -0.17804557 0.025097508 -0.26767948 0.11551553 0.006259174 0.2545198
-0.0422792 0.10412331 0.19863138 0.12413513 0.0879357 -0.20379747 -0.39514983 0.11334071
0.35368544 -0.43031496 0.070196934 0.048432548 -0.101371065 0.06717342 -0.06815499 -0.2219186
-0.0764011 -1.3570262 -0.043312788 -0.47438747 0.27638465 0.30492723 -0.5640445 -0.18299887
-0.023261115 0.04894199 -6.2124786 0.1640061 -1.3983604 0.056095324 -1.3815569 -0.59410757
-0.10478533 0.102492355 -0.03490184 0.05894265 -0.36548918 -2.2734275 0.0810828 -0.65751517
-1.0145038 -4.1733413 -0.80848503 -0.11001181 -0.08863945 -0.09128575 0.15159322 0.22822273

MLP_layers.1.bias f4 [10]
00000000: 2ef6 c5bd 5246 123e 3b7d a73d ad81 b13d
00000010: 9275 853d c397 e23d 31e4 d3bd 8c57 0fbf
00000020: 860a 17be d2d6 c73e
-0.09666096 0.14284638 0.08178183 0.08667312 0.065165654 0.110641025 -0.103462584 -0.5599296
-0.14750108 0.39031082
