saved/201911221254.pt (torch_old, 225989 bytes, 22 tensors)

GAT_layers.0.GAT_heads.0.f.weight f4 [32, 6]
0	0xbcc4ee7b	-0.024039498
1	0x3e89bf53	0.2690378
2	0xbfb47a1d	-1.4099766
3	0x3c9b9883	0.018993622
4	0x3f014a27	0.5050377
5	0xbfdd5672	-1.7292006
6	0x3c0bb241	0.008526386
7	0xbe2c9cfa	-0.16856757
8	0x3e9b4280	0.30324173
9	0xbe24430e	-0.16041204
10	0xbdf21097	-0.118195705
11	0xbe17016d	-0.14746638
12	0x3bdc75fb	0.0067279316
13	0x3f4a3b4a	0.7899672
14	0x3d89dc38	0.067314565
15	0x3d438b67	0.047740366
16	0x3f759cfd	0.9594267
17	0x3d18e173	0.03732438
18	0x3d62049c	0.055180177
19	0xbf73537c	-0.9504926
20	0x3f5d8774	0.8653481
21	0x3d3b08ec	0.045662805
22	0xbf98b376	-1.1929767
23	0x3f5c09b7	0.85952324
24	0x3d2c7532	0.042103954
25	0xbcfe158b	-0.031016132
26	0x3d87526a	0.06607516
27	0x3e2c065e	0.16799304
28	0x3e1c3eae	0.15258285
29	0x3ec749d9	0.3892353
30	0xbe38c197	-0.18042599
31	0xbe18b9ec	-0.14914674
32	0x3d2fb9d6	0.042901836
33	0xbe5e06c6	-0.21682271
34	0x3e583386	0.21113405
35	0xbeb96156	-0.36207074
36	0xbe8c23bb	-0.2737101
37	0xbd61cc74	-0.055126622
38	0xbe327171	-0.17426087
39	0xbea24031	-0.316896
40	0xbe0b3d2f	-0.13597558
41	0x3ddd92b2	0.108189955
42	0x38af2000	8.350611e-05
43	0xbeba7cb6	-0.36423272
44	0x3e6cb6aa	0.23116556
45	0xbeb95dfe	-0.36204523
46	0x3da1d138	0.079012334
47	0xbc9b6cd0	-0.018972784
48	0x3ef79bf5	0.48361173
49	0xbd20d748	-0.03926781
50	0x3cf4f64d	0.029902602
51	0xbf0218ff	-0.5081939
52	0xbd46da67	-0.04854813
53	0xbebf0971	-0.3731189
54	0x3d0de5a6	0.034642838
55	0xbffd69b8	-1.9797888
56	0x3e82725d	0.25477877
57	0x3c0e5876	0.008688083
58	0xbfd503f8	-1.6641836
59	0xbdbbc944	-0.09169248
60	0x3ddc3b2d	0.107534744
61	0x3ea62285	0.3244821
62	0xbdf35470	-0.118813396
63	0xbc9e28e9	-0.019306617
64	0x3d47f433	0.04881687
65	0xbe90bd3e	-0.2826938
66	0x3e805000	0.25061035
67	0x3e5efe4d	0.21776696
68	0xbed7879e	-0.42095655
69	0xbe51a08f	-0.20471404
70	0x3eb86cea	0.36020595
71	0x3e55a4f8	0.20863712
72	0xbdb4389d	-0.087998606
73	0x3f260d3c	0.64863944
74	0xbe716068	-0.23571932
75	0x3d1b811a	0.037964918
76	0x3f6c0392	0.9219295
77	0xbed58201	-0.41700748
78	0x39b04f03	0.00033628204
79	0x3dd70126	0.10498266
80	0xbcb611f0	-0.02222535
81	0xbcc0e18f	-0.023545055
82	0xbe552f5d	-0.20818849
83	0xbe0f5112	-0.1399577
84	0x3e084bde	0.13310191
85	0xbf847847	-1.0349206
86	0xbff0d772	-1.8815749
87	0xbc92275d	-0.017841036
88	0xbf11c844	-0.56946206
89	0xc0240b52	-2.563191
90	0xb9c9f27a	-0.00038518367
91	0xbf27eb35	-0.6559327
92	0xbf017e75	-0.50583583
93	0x3c0e6e2a	0.008693257
94	0xbe808168	-0.2509873
95	0x3bfc2d1e	0.007695808
96	0x3e99a179	0.30006006
97	0x3d39637f	0.045260902
98	0x3ea2a766	0.3176834
99	0xbe5f7e08	-0.21825421
100	0x3d3ce0fc	0.046113
101	0x3f05ce9f	0.52268404
102	0x3e0e9e77	0.13927637
103	0xbda2647a	-0.07929321
104	0x3f6a4a96	0.9152006
105	0xbe10552b	-0.14094989
106	0x3e3047d5	0.17214902
107	0x3f3c6be7	0.73602146
108	0x3e0450ba	0.1292142
109	0xbe92e273	-0.28688392
110	0xbee4f532	-0.4471832
111	0xbdf25474	-0.118325144
112	0xbeac1f20	-0.33617496
113	0xbf04eb78	-0.51921797
114	0xc0ac7ffe	-5.390624
115	0xbe0848ed	-0.13309069
116	0xbe64cd7a	-0.22344008
117	0xc0ac118b	-5.3771415
118	0x3d5088e3	0.050911795
119	0x3e4fb470	0.20283675
120	0xbf2f00af	-0.6836042
121	0xbd867e5d	-0.06567071
122	0xbe3b374e	-0.18282816
123	0x3e84d38b	0.25942644
124	0x3d74c9be	0.05976271
125	0x3e1c76ac	0.15279645
126	0xbf18d581	-0.5970078
127	0xbe172fa9	-0.14764275
128	0x3c3a0678	0.011354081
129	0xbef00082	-0.46875387
130	0xbebb7b09	-0.36617306
131	0xbdcf847b	-0.101326905
132	0xbcb6b674	-0.022303797
133	0xbfd41368	-1.6568422
134	0x3f1e511b	0.6184251
135	0x3ddfe137	0.10931628
136	0xbfc36404	-1.5264897
137	0xbdcb56ec	-0.099286884
138	0xbd9a56ce	-0.07536088
139	0x3e67ff34	0.22655946
140	0x3f2c6f52	0.6735736
141	0x3d2846e2	0.041083224
142	0x3edbe290	0.4294629
143	0x3f42b37b	0.76055115
144	0xc0295283	-2.645661
145	0x3f7bb7f7	0.98327583
146	0xbf4006f4	-0.7501061
147	0x3df13b35	0.11778871
148	0x3ea44270	0.32081938
149	0xbe8223d5	-0.25417963
150	0xbe19cedb	-0.15020315
151	0x3eb9331f	0.36171815
152	0xbe729fce	-0.23693773
153	0xbe9c2f8c	-0.30505025
154	0x3ece8b2c	0.40340555
155	0xbeaf530a	-0.3424304
156	0xc0ccb40d	-6.396979
157	0x3e353544	0.176961
158	0x3f1ce697	0.6128935
159	0xc0d1b4bc	-6.5533123
160	0x3e95b2a0	0.29237843
161	0x3f1fbe8d	0.6240013
162	0x3c23aa2f	0.009989305
163	0x3f88c86b	1.0686163
164	0xbf56d617	-0.83920425
165	0x3cb5d084	0.022194155
166	0x3f5043d0	0.81353474
167	0xbf4f99bc	-0.81093955
168	0xbd192e23	-0.037397515
169	0x3e61fd46	0.22069272
170	0xbf1dbe32	-0.6161834
171	0x3c89f6b2	0.016841266
172	0x3ee3f959	0.44526175
173	0xbdf08f7d	-0.11746118
174	0xbe29bdc1	-0.16576292
175	0xbdbc3488	-0.09189707
176	0x3c8c0040	0.017089963
177	0xbb6a2a80	-0.0035730898
178	0xbd53a648	-0.05167225
179	0xbd90e684	-0.07075217
180	0xbe0b612a	-0.13611284
181	0x3d4cd750	0.050010026
182	0xbe492100	-0.19641495
183	0xbe1853a7	-0.14875661
184	0xbec85e7b	-0.39134583
185	0xbe97cd2d	-0.29648724
186	0xbcdc8113	-0.026917016
187	0x3dd099b3	0.10185566
188	0xbfa653a1	-1.2994272
189	0xbf1edee6	-0.62058866
190	0x3e1564ee	0.14589283
191	0xbfbece0e	-1.4906633

GAT_layers.0.GAT_heads.0.f.bias f4 [32]
0	0x3f44595d	0.7669886
1	0x3e9be2b6	0.30446404
2	0xbf89fe75	-1.0780779
3	0xbee11ec7	-0.43968794
4	0xbea523bb	-0.32253823
5	0xbdac458e	-0.08411704
6	0xbcbf5401	-0.023355486
7	0xbe841d50	-0.25803614
8	0xbc8eaffe	-0.017417904
9	0x3f70f898	0.94129324
10	0x3c99549f	0.018717108
11	0xbe33c971	-0.17557313
12	0xbf31e270	-0.6948614
13	0xbdac2280	-0.08405018
14	0x3f4fcd4d	0.8117264
15	0x3f847edf	1.0351218
16	0xbf67b8a5	-0.9051612
17	0xbdaf0dad	-0.0854753
18	0x3f824193	1.0176262
19	0x3f2767f7	0.6539301
20	0xbbbaeabf	-0.0057042534
21	0x3f1c2160	0.60988426
22	0x3f17d239	0.5930515
23	0xbe2918a0	-0.165133
24	0xbe968cec	-0.2940439
25	0x3e4e1698	0.20125806
26	0xbece71dd	-0.40321246
27	0x3d4dfb83	0.05028869
28	0x3f003944	0.5008738
29	0xbd964c48	-0.07338768
30	0xbdb6a798	-0.08918685
31	0x3eebfeaf	0.46092746

GAT_layers.0.GAT_heads.0.w.weight f4 [1, 6]
0	0xbd723d4d	-0.059140492
1	0x3f11acdd	0.56904393
2	0x3fa2dbf1	1.2723371
3	0xbe74ab22	-0.23893407
4	0x3f8a56b4	1.080771
5	0x3fcfdba5	1.6238905

GAT_layers.0.GAT_heads.1.f.weight f4 [32, 6]
0	0xbe6116ca	-0.2198135
1	0xbdc0de7a	-0.09417434
2	0xbe9635ad	-0.29337826
3	0x3ed4d4a4	0.41568482
4	0xbe4ce248	-0.20008194
5	0x3e7dd76b	0.24789207
6	0xbe1ffc38	-0.15623558
7	0xbdf579e7	-0.11986142
8	0x3c937a64	0.018002696
9	0x3d290450	0.04126388
10	0xbe8d701f	-0.27624604
11	0xbf2a67c9	-0.66564614
12	0x3ed52cd1	0.41635755
13	0x3e82485f	0.2544584
14	0xbf011179	-0.50417286
15	0xbedc0b9e	-0.42977613
16	0xbd1387e2	-0.03601826
17	0x3e152b4b	0.14567296
18	0x3b6a6059	0.0035762994
19	0x3e8b8913	0.27253017
20	0xbf1120d1	-0.566907
21	0x3f07bbb3	0.5302078
22	0x3efbaa4a	0.49153358
23	0xbdfb014b	-0.12256106
24	0xbdd8fa18	-0.105945766
25	0xbe7b1417	-0.24519382
26	0xbd683e6d	-0.05670016
27	0x3ee85691	0.45378545
28	0x3ee90fa5	0.45519748
29	0xbebad425	-0.36489978
30	0xbedb044e	-0.42776722
31	0x3daa4fa6	0.08315973
32	0x3e053b2a	0.1301085
33	0x3eb922f3	0.36159477
34	0xbe0f24a1	-0.13978817
35	0x3ec346f4	0.3814007
36	0xbeab31cb	-0.33436427
37	0x3cc79bef	0.024366347
38	0x3e99e7af	0.30059573
39	0x3e926296	0.2859084
40	0x3e9b45c6	0.3032667
41	0x3c80a3f6	0.015703183
42	0xbd72f768	-0.059317976
43	0xbda640e0	-0.08117843
44	0xbec3fc60	-0.38278484
45	0xbd36e3d8	-0.044650882
46	0x3e56c462	0.20973352
47	0xbea9c34e	-0.33156818
48	0xbdf13bc7	-0.1177898
49	0xbe310101	-0.17285539
50	0xbeef3707	-0.4672167
51	0x3e9992e5	0.29994884
52	0x3ec7dd78	0.39036155
53	0xbf020f7c	-0.5080488
54	0xbe976c42	-0.29574782
55	0x3eb1962b	0.34684882
56	0x3d4a7388	0.049426585
57	0xbe6df80c	-0.23239154
58	0xbdb0b414	-0.08628097
59	0x3e5004de	0.20314357
60	0x3e23e3d6	0.16004881
61	0x3da996c7	0.082807116
62	0xbf024d33	-0.50899047
63	0xbd0c3278	-0.03422782
64	0x3e06f3f8	0.13179004
65	0xbea08199	-0.31348875
66	0x3e03e9b7	0.12882124
67	0x3e5839ca	0.21115795
68	0x3d86536b	0.065588795
69	0xbeac0945	-0.33600822
70	0xbe71ac28	-0.23600829
71	0x3e9d87c6	0.3076765
72	0xbdbc0f7c	-0.09182641
73	0x3d2daea8	0.042402893
74	0x3ebda94f	0.37043235
75	0xbe0fae30	-0.14031291
76	0xbdac1a68	-0.08403474
77	0xbeadca2c	-0.33943307
78	0xbe4f248c	-0.20228785
79	0x3dd2bc04	0.102897674
80	0xbe3ede91	-0.1863959
81	0xbe9fd5ce	-0.31217808
82	0x3e17ca8e	0.14823362
83	0x3eae6a37	0.3406541
84	0xbd7dcb35	-0.06196137
85	0x3e7352bd	0.23762031
86	0x3e66acfe	0.22526929
87	0xbba1fc9e	-0.0049434444
88	0x3e9ab6d8	0.30217624
89	0x3e2e431f	0.17017792
90	0xbeae2723	-0.34014234
91	0x3e006de1	0.12541915
92	0x3e7808bd	0.24222083
93	0xbcd3ebfc	-0.025869362
94	0x3e846007	0.25854513
95	0xbeb64459	-0.3559902
96	0xbe3bf456	-0.18354926
97	0x3e65c756	0.22439322
98	0xbe590a92	-0.21195439
99	0xbcf1d9e0	-0.029522836
100	0xbdffe4ac	-0.124947876
101	0xbea6aec5	-0.32555214
102	0xbd55c0ce	-0.052185826
103	0xbe84d6f0	-0.25945234
104	0xbe9d278f	-0.30694243
105	0x3e7c54d3	0.24641733
106	0x3f013326	0.5046867
107	0xbe332514	-0.17494613
108	0x3e65464e	0.223901
109	0x3ded182c	0.11576876
110	0xbe7afc92	-0.2451041
111	0xbebaf674	-0.36516154
112	0x3e17781e	0.14791915
113	0x3adb0d8b	0.001671241
114	0x3e4fe543	0.203023
115	0xbe3638b9	-0.17795075
116	0xbd4e52c5	-0.050371904
117	0xbeb57178	-0.35438132
118	0x3b787208	0.0037909765
119	0x3e515eed	0.20446368
120	0xbe1b3f0f	-0.15160774
121	0x3e6e3796	0.23263392
122	0xbe6beb1c	-0.23038906
123	0xbe889366	-0.26674956
124	0x3e6963a2	0.22791913
125	0xbe5f67fe	-0.21817014
126	0xbe8689e8	-0.2627709
127	0x3e8e8747	0.27837583
128	0xbdf452c9	-0.119298525
129	0xbb78fe75	-0.0037993465
130	0xbe87df36	-0.26537484
131	0x3e104dcd	0.14092179
132	0xbe71ce9b	-0.2361397
133	0x3e7beb42	0.24601462
134	0xbea50220	-0.32228184
135	0xbea852d9	-0.32875708
136	0x3ea72541	0.3264561
137	0x3e3f9af6	0.18711457
138	0xbe9c7845	-0.30560508
139	0xbda644be	-0.0811858
140	0xbceff3d7	-0.029291077
141	0x3e833a5e	0.25630468
142	0xbe99b7f9	-0.30023172
143	0x3ec5a5fb	0.38603196
144	0xbeb4dba8	-0.35323834
145	0xbddb61c0	-0.10712004
146	0x3cfe2b40	0.031026483
147	0xbec67f21	-0.38768867
148	0x3dab24f0	0.08356655
149	0x3e6515ca	0.22371593
150	0x3cbb2b05	0.022847662
151	0x3edc2449	0.42996433
152	0x3e606027	0.21911679
153	0x3e8fe20e	0.28102154
154	0x3f0c3645	0.5477031
155	0x3eea208f	0.45727965
156	0x3e58c48b	0.21168725
157	0x3ef6bd54	0.4819132
158	0x3e9e5423	0.30923566
159	0xbe9b43a7	-0.30325052
160	0x3da368be	0.07978962
161	0xbdaea1ab	-0.085269295
162	0xbea1a1fc	-0.31568897
163	0xbea4dcf2	-0.32199818
164	0x3e648a1e	0.22318313
165	0xbe579a3e	-0.21054932
166	0xbe7fbf18	-0.2497524
167	0xbb725080	-0.0036974251
168	0xbe995d20	-0.2995386
169	0xbe01c433	-0.126725
170	0x3ed8fc25	0.4237987
171	0x3e795506	0.2434884
172	0x3dbbcf75	0.09170429
173	0xbe28cfa5	-0.1648546
174	0xbf0dd0ec	-0.55396914
175	0x3e94548a	0.28970748
176	0xbe3c0433	-0.18360977
177	0xbc6de76f	-0.01452051
178	0xbe166742	-0.14687827
179	0xbec463f3	-0.38357505
180	0xbe87af5c	-0.26500976
181	0xbe63dc7a	-0.22252074
182	0x3e7bbdae	0.24584076
183	0xbd21fb08	-0.039546043
184	0xbec06afb	-0.3758162
185	0x3cec2ae0	0.028829038
186	0xbd67fdf6	-0.05663868
187	0x3e561c78	0.20909297
188	0xbf0310a9	-0.51197296
189	0xbba43d72	-0.0050122077
190	0x3f0ac0a4	0.54200196
191	0xbeb4e1d3	-0.3532854

GAT_layers.0.GAT_heads.1.f.bias f4 [32]
0	0xbeda1408	-0.42593408
1	0xbf9e04ab	-1.2345175
2	0xbcb5510b	-0.02213337
3	0xbe231b35	-0.15928347
4	0xbf8c116b	-1.0942816
5	0xbd8c2c2f	-0.06844365
6	0xbe56c8ee	-0.20975086
7	0x3ea4d1a8	0.32191205
8	0xbf72a67a	-0.94785273
9	0x3e6ff5bc	0.23433584
10	0xbf49df79	-0.7885662
11	0xbed3ea5b	-0.41389737
12	0x3e8c14a6	0.27359504
13	0xbda129f0	-0.07869327
14	0x3c94439b	0.018098643
15	0x3e073c69	0.13206638
16	0xbeb159b4	-0.3463875
17	0xbf0afb99	-0.5429016
18	0x3e2fd14e	0.17169687
19	0x3d2e5211	0.042558733
20	0xbea4f086	-0.32214755
21	0x3da32547	0.079660945
22	0xbe9b9120	-0.3038416
23	0xbeaca963	-0.33722982
24	0xbecadb6e	-0.39620537
25	0xbf50fb7c	-0.81633735
26	0xbe653595	-0.22383721
27	0x3ea5ebc4	0.32406437
28	0xbe812b8d	-0.2522854
29	0x3c444251	0.011978702
30	0xbeb4117c	-0.3516959
31	0xbe89a63a	-0.26884633

GAT_layers.0.GAT_heads.1.w.weight f4 [1, 6]
0	0x3d75343a	0.05986426
1	0x3faab482	1.3336337
2	0x3e627baf	0.22117494
3	0x3f0da1eb	0.5532519
4	0x3f89ca81	1.0764924
5	0x3f907d1d	1.1288182

GAT_layers.1.GAT_heads.0.f.weight f4 [64, 128]
0	0x3db0a53e	0.086252674
1	0x3d11043c	0.03540443
2	0xbe19b1ab	-0.15009181
3	0x3d6732e0	0.056445003
4	0xbc8304f0	-0.015993565
5	0xbd72a24a	-0.059236802
6	0xbd863449	-0.06552941
7	0xbcab1698	-0.020884797
8	0x3e0f397f	0.13986777
9	0x3e0239f7	0.12717424
10	0xbd95da60	-0.07317042
11	0xbd9169f2	-0.071002856
12	0x3df201f2	0.11816777
13	0xbd9da70c	-0.07697877
14	0xbdb95c72	-0.09050836
15	0x3d4277b8	0.047477454
16	0xbcf1c5d8	-0.029513285
17	0xbddad8b3	-0.10685863
18	0x3d9d0ffa	0.07669063
19	0xbcad3090	-0.02114132
20	0x3d8d50e2	0.06900193
21	0xbd6cb646	-0.057791017
22	0xbdf148f6	-0.11781494
23	0x3d28e68c	0.04123549
24	0xbc7889d0	-0.015169576
25	0x3d9003cc	0.07031974
26	0xbe1907c9	-0.14944376
27	0x3e130731	0.14358212
28	0x3d8a1554	0.06742349
29	0x3dad406a	0.08459552
30	0xbb6fb480	-0.0036576092
31	0x3e3410e5	0.1758457
32	0x3ca46588	0.020067945
33	0xbdabd883	-0.08390906
34	0x3da0decd	0.07854996
35	0x3df4a4f8	0.11945528
36	0x3e032d69	0.12810291
37	0xbe25aa01	-0.16178133
38	0xbe1c0e00	-0.15239716
39	0xbe122822	-0.14273122
40	0x3d3db446	0.0463145
41	0xbcf873d0	-0.030328661
42	0xbe0c82be	-0.13721749
43	0x3e04534d	0.12922402
44	0xbe350311	-0.17676951
45	0xbe0d7934	-0.13815767
46	0x3e0b361f	0.13594864
47	0x3e14f551	0.14546706
48	0x3d984a0e	0.07436
49	0xbd81e3fd	-0.063423134
50	0x3d16bd34	0.036801532
51	0xbcb09a78	-0.021558031
52	0x3dd5a1fe	0.10431288
53	0xbd770bf6	-0.06031414
54	0xbe036f70	-0.12835479
55	0x3e034355	0.12818654
56	0x3c26e550	0.010186508
57	0xbdc07e43	-0.093990825
58	0xbe2c5c30	-0.16832042
59	0xbe1fc206	-0.15601358
60	0xbd76f303	-0.060290348
61	0xbd930bf2	-0.07180013
62	0xbd85205c	-0.06500313
63	0xbc58f701	-0.013242484
64	0x3bd9a340	0.0066417754
65	0x3df00c66	0.11721115
66	0xbe145bcf	-0.14488147
67	0xbe1bf174	-0.15228826
68	0x3e288347	0.16456328
69	0xbd920e6d	-0.07131658
70	0x3d09c8f4	0.03363891
71	0xbd1b4958	-0.037911743
72	0x3d8e64f8	0.06952852
73	0x3d2cedf8	0.042219132
74	0xbe04892c	-0.12942952
75	0xbdf12de6	-0.117763326
76	0xbc9234d8	-0.017847463
77	0x3a9d6180	0.0012007207
78	0x3dec8696	0.11549108
79	0xbdfbdb7a	-0.12297721
80	0xbdd092d6	-0.10184257
81	0xbde94c04	-0.11391452
82	0x3e304cbb	0.1721677
83	0x3e23feef	0.16015218
84	0xbc987ac8	-0.018613234
85	0x3db11096	0.08645742
86	0xbdfb76ca	-0.122785166
87	0xbdcb6ab6	-0.09932463
88	0xbde47f57	-0.11157101
89	0xbe27b63b	-0.16378109
90	0xbe0be236	-0.13660511
91	0xbd372754	-0.04471524
92	0xbe10c6a3	-0.14138274
93	0xbe2c484c	-0.16824454
94	0xbda7af01	-0.08187676
95	0x3d7da46c	0.061924383
96	0x3ce9e933	0.02855358
97	0xbe390504	-0.1806832
98	0x3e2761fb	0.1634597
99	0xbe2eb684	-0.17061812
100	0xbe02a07c	-0.12756532
101	0xbcfb5068	-0.03067799
102	0xbe50492f	-0.20340417
103	0xbdef517c	-0.11685464
104	0xbe3cffdc	-0.18456978
105	0xbe155789	-0.14584173
106	0x3defd2d2	0.11710133
107	0x3dc565e2	0.09638573
108	0xbd1c735c	-0.038195953
109	0xbd73ef52	-0.059554406
110	0xbdd1f9bd	-0.10252712
111	0xbe1c1ef2	-0.1524618
112	0xbe2a751b	-0.16646235
113	0x3cbf9b96	0.023389619
114	0x3e13e733	0.14443664
115	0xbde61694	-0.11234775
116	0x3d964a56	0.07338397
117	0x3df99dea	0.12188323
118	0x3e0277d1	0.12741019
119	0x3dfd607a	0.12371917
120	0xbe23a1f6	-0.15979752
121	0x3de62c64	0.112389356
122	0x3d485344	0.048907533
123	0x3db32146	0.08746581
124	0x3dac86cc	0.08424148
125	0x3d20197c	0.039086804
126	0xbe2d9122	-0.16949895
127	0xbe25b31b	-0.16181605
128	0x3da664e8	0.08124715
129	0x3e10d1f6	0.14142594
130	0xbdd18184	-0.10229781
131	0xbd26b8d4	-0.04070361
132	0x3ce6a50c	0.028154872
133	0x3e0d4a33	0.13797836
134	0xbe2541f3	-0.16138439
135	0x3c403040	0.011730254
136	0x3b87faef	0.0041497867
137	0x3de5a532	0.11213149
138	0xbde4216b	-0.111391865
139	0x3e118c53	0.14213686
140	0xbe51344e	-0.20430109
141	0xbdb1a6b4	-0.08674374
142	0x3d29f097	0.04148921
143	0x3e1a4d67	0.15068589
144	0x3e2307bf	0.15920924
145	0x3de8f466	0.1137474
146	0xbd8c65dc	-0.06855366
147	0x3ec3bcf9	0.38230112
148	0x3d2d2560	0.04227197
149	0x3ecb0352	0.3965097
150	0xbe5f25e2	-0.21791795
151	0x3dba576c	0.09098706
152	0xbe473b41	-0.19456197
153	0x3e1b73dd	0.15180917
154	0x3e37096d	0.1787469
155	0x3dfc1dfc	0.123104066
156	0xbcc0e0b4	-0.023544647
157	0xbd4c4828	-0.0498735
158	0xbe13c2fe	-0.14429852
159	0xbe30ebf7	-0.17277513
160	0xbe9b7373	-0.30361518
161	0xbcb95bb0	-0.022626728
162	0xbe8fbd65	-0.28074184
163	0xbddc4625	-0.107555665
164	0xbe142532	-0.14467314
165	0xbe08db06	-0.13364801
166	0x3c702e02	0.014659407
167	0x3e1cba49	0.15305437
168	0x3c755381	0.014973522
169	0xbdd24990	-0.10267937
170	0xbe471535	-0.19441684
171	0x3d10995d	0.03530251
172	0xbcf1b0d0	-0.029503256
173	0xbd2b71e0	-0.041856647
174	0xbe48da49	-0.19614519
175	0xbdfef767	-0.12449532
176	0x3d1a8d9c	0.037732705
177	0xbd485f1b	-0.048918825
178	0x3e606319	0.21912803
179	0xbea1e93e	-0.31623262
180	0x3cdf7f98	0.027282521
181	0x3c0423e5	0.008065199
182	0x3e04b3e7	0.12959252
183	0xbdee2338	-0.11627811
184	0xbd1c7ef4	-0.03820701
185	0x3c426644	0.011865202
186	0xbd457eb4	-0.048216537
187	0xbc4d9460	-0.012547582
188	0xbe9d430e	-0.3071522
189	0x3dfc8196	0.12329404
190	0xbbd24a60	-0.0064175576
191	0xbd6c3cb4	-0.05767508
192	0x3e319911	0.17343546
193	0x3def65ca	0.116893366
194	0xbdbd8446	-0.09253745
195	0xbe183006	-0.1486207
196	0x3e078829	0.13235535
197	0xbd40ea14	-0.047098234
198	0x3ba8d100	0.005151868
199	0x3b699000	0.003563881
200	0x3caf5710	0.02140382
201	0x3dd363a6	0.10321741
202	0x3d879848	0.06620842
203	0xbda8db8c	-0.08245
204	0x3e30ac0b	0.17253129
205	0x3d8fa9c0	0.07014799
206	0x3e1a8c83	0.15092663
207	0xbe34f28e	-0.17670652
208	0x3dcdd166	0.10049705
209	0x3da2d072	0.07949914
210	0x3ce4c750	0.02792707
211	0xbe014901	-0.12625505
212	0xbe0ba6be	-0.13637826
213	0xbd410cf4	-0.047131494
214	0xbe0cd561	-0.13753273
215	0x3da369c2	0.07979156
216	0xbd2d0cb0	-0.042248428
217	0x3d0cc3a8	0.03436628
218	0xbd05ba1c	-0.03264819
219	0x3e1e91cb	0.15485303
220	0xbdd4b96b	-0.10386928
221	0xbd9dbaa6	-0.07701616
222	0x3e2e8b85	0.1704541
223	0xbc6cb890	-0.0144483
224	0xba7f188f	-0.00097311375
225	0xbca81b7e	-0.020520922
226	0xbe2ad1e6	-0.16681632
227	0x3dd46e30	0.10372579
228	0xbdff69f7	-0.12471383
229	0x3d677acc	0.056513593
230	0x3d9c9cce	0.076470956
231	0x3e0bcfb3	0.1365345
232	0x3dd90d56	0.10598247
233	0x3e2683ff	0.1626129
234	0xbd7e7772	-0.06212563
235	0xbe32bc2f	-0.17454599
236	0x3e172a8b	0.14762323
237	0xbdd98292	-0.106206074
238	0xbe243b14	-0.16038162
239	0x3d919a6e	0.07109533
240	0x3d8bd5a0	0.06827855
241	0xbe5399ea	-0.20664182
242	0x3e128e2a	0.14312044
243	0x3ca7df6a	0.020492274
244	0x3d360218	0.04443559
245	0xbca34d7c	-0.019934408
246	0xbe294cc4	-0.1653319
247	0xbe2cd4f0	-0.16878104
248	0xbdec0a54	-0.115254074
249	0xbd85c11c	-0.06530973
250	0xbe0a84d5	-0.13527234
251	0xbe22732e	-0.1586425
252	0xbe10c8bf	-0.14139079
253	0xbb9e14a0	-0.004824236
254	0xbd7535de	-0.059865825
255	0xbd3c2e66	-0.045942686

GAT_layers.1.GAT_heads.0.f.bias f4 [64]
0	0x3c896d54	0.016775765
1	0xbcc0796e	-0.023495402
2	0xbd89efa0	-0.06735158
3	0x3d8bd74a	0.068281725
4	0xbd67947e	-0.056538098
5	0x3d3f5bb8	0.04671833
6	0xbded2c1a	-0.11580677
7	0xbc184648	-0.0092941
8	0x3d0f3522	0.03496278
9	0xbdae851a	-0.08521481
10	0xbdc9726c	-0.09836277
11	0x3cbcdc5c	0.023054294
12	0xbdc2f5c8	-0.09519535
13	0x3d18eb7e	0.037333958
14	0xbd723954	-0.059136704
15	0x3d75b06b	0.0599827
16	0x3ba55460	0.0050454587
17	0x3d016614	0.03159149
18	0xbd16898a	-0.03675226
19	0xbe0161e9	-0.12635006
20	0xbe8867e7	-0.2664177
21	0xbdde1785	-0.1084433
22	0xbe4d5862	-0.20053247
23	0x3d55def6	0.052214585
24	0xbd97574d	-0.07389698
25	0xbc867d4c	-0.016417168
26	0xbcee8c01	-0.029119493
27	0xbdc35b88	-0.095389426
28	0xbdeab68e	-0.11460601
29	0x3bf2abfc	0.007405756
30	0xbd34381d	-0.043998826
31	0xbdd3668b	-0.10322293
32	0x3d54b2ba	0.05192826
33	0xbd8fc789	-0.0702048
34	0xbc602ae0	-0.013682097
35	0x3c5b5cc5	0.013388817
36	0xbce2847f	-0.02765107
37	0xbda07c07	-0.07836156
38	0xbdd6bf75	-0.10485736
39	0xba6c3eb6	-0.000901203
40	0xbd9ad911	-0.075609334
41	0x3b970063	0.0046082004
42	0x3d4ad8e1	0.049523238
43	0xbd391e4c	-0.04519491
44	0xbcbfc248	-0.02340807
45	0xbd012cc3	-0.03153683
46	0xbdd64e0f	-0.10464107
47	0xbe433a91	-0.1906531
48	0xbcde5cf7	-0.027143938
49	0x3b03ea0a	0.0020128512
50	0xbd8de290	-0.06927979
51	0xbe3a915c	-0.18219513
52	0xbc76c2f0	-0.015061125
53	0xbdb90463	-0.0903404
54	0xbc82f881	-0.015987637
55	0x3d4239a0	0.047418237
56	0xbd9c47ca	-0.0763088
57	0xbc46a9a0	-0.012125403
58	0xbd034767	-0.032050516
59	0xbe0a12b9	-0.13483705
60	0x3ca77e79	0.020446049
61	0xbdb0253a	-0.086008504
62	0xbd3d05f2	-0.046148248
63	0x3cf5f1b4	0.03002248

GAT_layers.1.GAT_heads.0.w.weight f4 [1, 128]
0	0x3e498760	0.19680548
1	0xbf654acc	-0.89567256
2	0x3d925459	0.07144994
3	0x3e21b375	0.15791114
4	0x3e56f8e2	0.20993379
5	0xbb930e95	-0.0044878223
6	0x3dbbd102	0.091707245
7	0xbde9b6c2	-0.114118114
8	0x3e75398b	0.23947732
9	0xbe3ba966	-0.18326339
10	0x3f2bca40	0.67105484
11	0x3ef41fed	0.47680607
12	0xbd109b8e	-0.0353046
13	0xbd689e41	-0.056791548
14	0x3f2cfd73	0.6757423
15	0x3be7c4b5	0.00707301
16	0x3ef180a6	0.47168463
17	0xbe529c57	-0.20567451
18	0x3da7de2e	0.08196674
19	0xbf6b673c	-0.919544
20	0x3e8cf60e	0.27531475
21	0xbf53655b	-0.8257653
22	0x3e6fca8d	0.2341711
23	0x3dddaf82	0.10824491
24	0xbd62b21c	-0.05534564
25	0x3d1cae44	0.03825213
26	0xbf660a89	-0.89859825
27	0x3e10b71f	0.14132355
28	0x3e1694b2	0.1470516
29	0xbd014f78	-0.031569928
30	0xbdd86e76	-0.10567944
31	0x3f15dbda	0.5853859
32	0xbe8c835e	-0.27443975
33	0xbe9e6c45	-0.30941978
34	0xbe96314d	-0.2933449
35	0xbeebaac6	-0.46028727
36	0xbea98e0f	-0.33116195
37	0xbe0c15c1	-0.13680173
38	0xbe0dcecc	-0.13848418
39	0x3dbb16fc	0.09135243
40	0xbe9cfc1e	-0.306611
41	0x3d1fa230	0.038973033
42	0xbe793195	-0.2433532
43	0xbca1151b	-0.019663384
44	0x3d987be8	0.07445508
45	0x3e320b1e	0.17387053
46	0xbe5ba26e	-0.21448681
47	0xbdeed95b	-0.11662551
48	0x3dd2d70c	0.10294923
49	0xbed1ec8d	-0.41000786
50	0x3e25f2a3	0.1620584
51	0xbe278a48	-0.16361344
52	0xbe2f2af8	-0.17106235
53	0x3df94427	0.12171202
54	0x3c957cb8	0.018247947
55	0xbd43976e	-0.047751836
56	0x3da1c11c	0.07898161
57	0xbec6ad2f	-0.38804004
58	0xbe281369	-0.16413654
59	0x3d9e7290	0.07736695
60	0xbe117da5	-0.14208086
61	0xbd6c31b8	-0.057664603
62	0x3e3aad5e	0.18230197
63	0xbc250042	-0.010070862
64	0xbe104138	-0.14087379
65	0xbda13532	-0.07871474
66	0xbe418df8	-0.18901813
67	0xbd9013b8	-0.07035011
68	0xbe0a9d1c	-0.13536495
69	0xbe2da1e4	-0.16956288
70	0xbe269c8a	-0.16270652
71	0xbd9df5b6	-0.07712881
72	0xbd9f979a	-0.077925876
73	0xbe53eef8	-0.20696628
74	0x3d786678	0.060644597
75	0x3e14f27c	0.14545625
76	0xbdf62029	-0.12017853
77	0x3e38dd6e	0.18053219
78	0x3e13431c	0.14381069
79	0x3d0f30c0	0.0349586
80	0xbdf947a3	-0.12171867
81	0xbd5e53dc	-0.054279193
82	0x3d741600	0.059591293
83	0xbd8c356e	-0.068461284
84	0x3e4382ce	0.19092867
85	0x3e599b1e	0.21250579
86	0x3c6e62e0	0.014549941
87	0x3e3787e6	0.17922935
88	0xbcd1ab10	-0.025594264
89	0x3dc13588	0.094340384
90	0x3de3cd30	0.11123121
91	0x3da6dd2c	0.08147654
92	0xbd8fd312	-0.0702268
93	0xbbdc0860	-0.0067148656
94	0xbe4063f7	-0.18788134
95	0x3e449d58	0.19200647
96	0x3f8d348f	1.1031665
97	0x3f8eb723	1.1149639
98	0xbeac11c0	-0.33607292
99	0x3f939b27	1.1531724
100	0x3fb0eebb	1.3822855
101	0x3eaaa699	0.3333023
102	0x3f388422	0.7207662
103	0x3dd0818c	0.10180959
104	0x3fab4289	1.337968
105	0x3dc4c074	0.0960702
106	0x3f8b9581	1.0905
107	0xbe1459ca	-0.14487377
108	0xbce9fce0	-0.028562963
109	0xbd97df90	-0.07415688
110	0x3ec7a461	0.389926
111	0xbcacf726	-0.021113943
112	0xbd0250f4	-0.031815484
113	0x3faafedc	1.3359027
114	0x3e1b7ed8	0.15185106
115	0x3d5a143c	0.053241953
116	0xbc0f7ee0	-0.008758277
117	0x3dde4252	0.10852493
118	0x3c743ea0	0.014907509
119	0x3ecd0916	0.40045995
120	0x3ddc2c74	0.10750666
121	0x3f8a6252	1.0811255
122	0xbd9e0654	-0.07716051
123	0x3dcffac0	0.10155249
124	0x3f36654c	0.71248317
125	0x3c5ec124	0.013595853
126	0x3d8fdce0	0.070245504
127	0x3f72b875	0.9481271

GAT_layers.1.GAT_heads.1.f.weight f4 [64, 128]
0	0xbf872a96	-1.0559871
1	0x3edf9ee8	0.43675923
2	0xbf923647	-1.1422814
3	0x3f45498c	0.7706535
4	0xbe637c09	-0.22215284
5	0xbd196f57	-0.037459698
6	0x3d5b1dd8	0.053495258
7	0xbda0edda	-0.078578666
8	0x3dad1ff8	0.08453363
9	0x3f9ce1c5	1.2256399
10	0xbfc9e759	-1.5773727
11	0xbf4609af	-0.77358526
12	0xbf74513b	-0.9543645
13	0xbe9a71f1	-0.30165055
14	0x3f607004	0.8767092
15	0xbda79d1b	-0.08184262
16	0xbf126d71	-0.57198244
17	0x3f18c8ec	0.5968158
18	0x3d9960b3	0.07489147
19	0x3ea85eb8	0.32884765
20	0x3e9f31e8	0.31092763
21	0xbda334c5	-0.07969049
22	0x3f7ac62a	0.97958624
23	0x3ed2db95	0.41183153
24	0x3ec93016	0.392945
25	0xbea680a9	-0.32520035
26	0x3f132398	0.57476187
27	0xc0074b22	-2.1139607
28	0xbf369156	-0.71315515
29	0xbe307620	-0.17232561
30	0x3e197695	0.14986642
31	0xbec64638	-0.38725448
32	0x3e156cba	0.14592257
33	0x3e80c466	0.2514984
34	0xbeea20e2	-0.45728213
35	0x3e1d28a5	0.15347536
36	0x3e768838	0.24075401
37	0x3edb478b	0.4282802
38	0xbe124b7b	-0.14286606
39	0x3df0990e	0.11747943
40	0xbc097462	-0.008389564
41	0xbe0a08e4	-0.13479954
42	0x3cd6f5c7	0.026240243
43	0xbd97542a	-0.073891
44	0xbe0fba83	-0.14035992
45	0x3db86916	0.090044186
46	0x3cd46413	0.025926625
47	0x3e23f6dd	0.1601214
48	0x3e12859b	0.14308779
49	0x3e6cfc34	0.23143083
50	0x3e3e5597	0.18587337
51	0x3dc8f02b	0.098114334
52	0xbdeded5c	-0.11617538
53	0x3cb8dcb9	0.022566186
54	0x3ddca6b6	0.10773985
55	0x3e059544	0.13045222
56	0xbdde1d13	-0.10845389
57	0x3dcfd784	0.10148528
58	0x3e548b30	0.20756221
59	0xbdfa461e	-0.12220405
60	0xbdd1ebbf	-0.10250043
61	0xbd457ea1	-0.048216466
62	0xbd10f134	-0.03538628
63	0x3e319fc5	0.17346103
64	0x3f13d964	0.57753587
65	0xbe675444	-0.22590739
66	0x3e99ba25	0.3002483
67	0xbe8b2df2	-0.2718349
68	0xbecd9b2f	-0.40157458
69	0xbdbdf0f7	-0.09274476
70	0x3e15e84c	0.14639395
71	0x3db3d3fa	0.08780666
72	0xbfab297a	-1.3372033
73	0xbeb54bca	-0.35409385
74	0xbfa96beb	-1.3236059
75	0xbfed8001	-1.8554689
76	0x3ee60075	0.44922224
77	0xbede1857	-0.43377945
78	0x3f5ed27f	0.8703994
79	0xbf5a0028	-0.8515649
80	0xbffbf7d7	-1.968501
81	0xbf194c28	-0.5988183
82	0xbf946ed1	-1.1596318
83	0xbf78af7f	-0.97142786
84	0x3e346d66	0.17619857
85	0xbe21cd6d	-0.1580102
86	0xbe6b5747	-0.22982512
87	0xbf2e2855	-0.6803029
88	0x3f142881	0.57874304
89	0xbe018280	-0.12647438
90	0xbfb62d84	-1.423264
91	0x3edee704	0.43535626
92	0xbf17e35b	-0.5933129
93	0x3e34dbbd	0.17661949
94	0x3d6a777c	0.057242855
95	0xbf98be88	-1.1933146
96	0x3d7497b5	0.05971499
97	0x3dc67f36	0.09692232
98	0xbdcb3cb9	-0.09923691
99	0xbdc750db	-0.09732219
100	0xbe0f1911	-0.13974406
101	0xbc567830	-0.013090178
102	0x3af97a33	0.0019033611
103	0xbe25bee4	-0.161861
104	0x3cd04267	0.025422288
105	0x3d2ce684	0.042212024
106	0x3df560b2	0.11981334
107	0xbdef39d0	-0.11680949
108	0xbe207443	-0.1566935
109	0x3e0f5b1f	0.13999604
110	0xbaf1dab5	-0.0018452021
111	0xbd7735de	-0.060354106
112	0x3c8c24c0	0.017107368
113	0x3d830a6f	0.063984744
114	0x3e173411	0.14765956
115	0xbe3b362d	-0.18282385
116	0xbd3879c4	-0.045038
117	0xbe0f95b4	-0.14021951
118	0xbe2ed481	-0.17073251
119	0xbcbbee9b	-0.022940924
120	0xbd164cb4	-0.036694244
121	0x3e0193bc	0.12654012
122	0xbc280e1a	-0.010257268
123	0xbdfa48d8	-0.12220925
124	0x3dd7e5b5	0.1054186
125	0xbdfa4655	-0.12220446
126	0xbd964f53	-0.07339349
127	0x3d97c3e2	0.074104086
128	0xbe9a528a	-0.30141097
129	0x3e5a629f	0.21326683
130	0x3f3a9380	0.7288132
131	0x3d2ea541	0.042638067
132	0x3e91b52d	0.2845854
133	0xbdff5086	-0.124665305
134	0x3da4bb8b	0.080435835
135	0xbe29e053	-0.16589479
136	0x3e14d1ae	0.14533111
137	0x3eb2124f	0.34779593
138	0x3e3a491f	0.18191956
139	0x3e52a0f1	0.20569207
140	0x3e01a18f	0.12659286
141	0x3e27dd46	0.16393003
142	0x3e41c424	0.18922478
143	0x3e6fd179	0.23419751
144	0xbe9e931d	-0.30971614
145	0x3d8881a6	0.066653535
146	0x3e585bc4	0.21128756
147	0xbf91ff32	-1.1406004
148	0xc0182be8	-2.3776798
149	0xbfa63945	-1.2986227
150	0x3e2a7564	0.16646343
151	0x3d797786	0.060905002
152	0xbf5d5ac3	-0.86466616
153	0x3f51e6c0	0.8199272
154	0x3ddf7c78	0.109124124
155	0x3e2e92f0	0.1704824
156	0x3eba3d6c	0.36374986
157	0xbdee4dfe	-0.116359696
158	0x3dfa79b2	0.12230243
159	0x3f3a5c05	0.7279666
160	0xbf021055	-0.5080617
161	0xbe78760d	-0.24263783
162	0xbe34e66a	-0.17666021
163	0xbee43c00	-0.44577026
164	0xbe8f27cb	-0.27960047
165	0x3e968f99	0.2940643
166	0xbea2aa9a	-0.31770784
167	0xbcf570f0	-0.02996108
168	0xbf056690	-0.5210962
169	0xbd37a508	-0.04483512
170	0xbeaa9c23	-0.33322248
171	0xbe01b89c	-0.12668079
172	0xbdfa5732	-0.122236624
173	0xbda97bc6	-0.08275561
174	0x3e0d4610	0.13796258
175	0x3d5be991	0.053689543
176	0x3d1ad900	0.037804604
177	0xbee76f8f	-0.452023
178	0x3e4261b5	0.18982585
179	0x3d36a4ba	0.04459069
180	0xb9e22c00	-0.00043138862
181	0xbdd0b2c1	-0.101903446
182	0xbdf8943a	-0.12137647
183	0x3e578f69	0.210508
184	0xbe0f807d	-0.14013858
185	0xbf026804	-0.50939965
186	0xbe0a8758	-0.13528192
187	0xbe322bc3	-0.17399506
188	0xbe53ed2c	-0.20695943
189	0x3e115e6b	0.14196174
190	0x3ccf0638	0.02527152
191	0xbd385022	-0.044998296
192	0xbf230de0	-0.63693047
193	0x3e95354b	0.29142222
194	0x3bf74787	0.0075463685
195	0xbe5f1adf	-0.21787594
196	0xbe98f4c8	-0.29874253
197	0x3df1d465	0.11808089
198	0x3dfc441b	0.123176776
199	0xbc803d28	-0.015654162
200	0xbeb48c88	-0.35263467
201	0x3e945e34	0.2897812
202	0xbf09ad68	-0.5378022
203	0xbf3e5543	-0.7434885
204	0xbea497f2	-0.32147175
205	0xbd7fd4d5	-0.06245883
206	0xbed24446	-0.41067713
207	0x3efba3a3	0.49148282
208	0xbf86fef5	-1.0546557
209	0x3e2a00f3	0.16601925
210	0x3d56b7d2	0.0524214
211	0xbf99a42b	-1.2003225
212	0xbfde6d09	-1.7377025
213	0xbf7074f5	-0.9392846
214	0x3e70787e	0.23483464
215	0x3eda9479	0.426914
216	0xc0085f8a	-2.1308312
217	0xbf0acd53	-0.5421955
218	0xbf7c33f7	-0.9851679
219	0xbe980f8c	-0.2969936
220	0x3e83cdbe	0.25742906
221	0xbcf12fe8	-0.029441789
222	0xbd357c24	-0.044307843
223	0xbf63c114	-0.8896649
224	0xbc93a851	-0.018024595
225	0x3a485503	0.0007642062
226	0x3e89d156	0.26917523
227	0x3bb0a32e	0.0053905463
228	0x3dd8dbb4	0.1058878
229	0x3dcd48ad	0.100236274
230	0x3d33c2f2	0.043887086
231	0xbd8be5f7	-0.06830972
232	0xbddef8ed	-0.108873226
233	0xbdaa54e9	-0.083169766
234	0xbcfea404	-0.031084068
235	0x3bfe4905	0.0077601695
236	0xbcb68e80	-0.022284746
237	0x3dd81c12	0.10552229
238	0xbb9a6936	-0.004712249
239	0x3e31ab61	0.17350532
240	0x3e2c1b8f	0.16807388
241	0xbc2ef183	-0.010677698
242	0xbe8aa858	-0.2708156
243	0x3e1d9952	0.15390518
244	0xbd8eaaf0	-0.069661975
245	0xbe8567be	-0.26055712
246	0x3e1afbbb	0.1513509
247	0x3e736c4e	0.23771784
248	0xbda643fe	-0.08118437
249	0xbd9ebbb6	-0.07750647
250	0x3c61a888	0.013773091
251	0xbe2a3f92	-0.16625813
252	0x3da20ccc	0.07912597
253	0x3dc304b0	0.095223784
254	0xbe22f6e5	-0.15914495
255	0x3df585af	0.11988389

GAT_layers.1.GAT_heads.1.f.bias f4 [64]
0	0xbc6574ee	-0.014004929
1	0xbc41a776	-0.011819711
2	0xbc3ca33b	-0.011513527
3	0xbe1290d3	-0.14313059
4	0xbcb989d8	-0.022648737
5	0xbea46416	-0.3210761
6	0xbd96aeea	-0.07357581
7	0xbe321e2c	-0.17394322
8	0xbad8a707	-0.001652927
9	0xbdf7d8e0	-0.121019125
10	0xbd74fab7	-0.059809413
11	0xbe719d78	-0.23595226
12	0xbc53e372	-0.012932645
13	0x3dc0df10	0.09417546
14	0xbb49ed50	-0.0030811615
15	0xbeebf215	-0.4608313
16	0xbed03cc8	-0.40671372
17	0xbe524c7d	-0.2053699
18	0xbc138053	-0.009002763
19	0xbc4b4b5b	-0.012408103
20	0x3da3d417	0.07999437
21	0xbe0e1c35	-0.13877948
22	0xbbbb0082	-0.0057068476
23	0x3d7df61e	0.062002294
24	0x3d9030f8	0.0704059
25	0x3e78eefc	0.24309915
26	0xbc8bf915	-0.017086545
27	0xbcbd3b50	-0.023099571
28	0xbdc1e959	-0.09468336
29	0x3cfc9df4	0.030837037
30	0xbb84c8dd	-0.004052265
31	0xbd406e95	-0.04698046
32	0xbe1dcbe2	-0.15409806
33	0xbf1107ab	-0.56652325
34	0xbe21df9a	-0.15807953
35	0xbe779c45	-0.24180706
36	0xbce8957b	-0.02839159
37	0xbcae4c37	-0.021276576
38	0xbcbcb8bb	-0.023037305
39	0xbe15295b	-0.14566557
40	0x3df61f81	0.12017728
41	0x3d0b94e3	0.034077536
42	0xbe5bdea0	-0.21471643
43	0xbd6ed1e9	-0.058305655
44	0x3dc7156b	0.09720882
45	0x3eac58f6	0.33661622
46	0xbbf2b557	-0.0074068713
47	0xbc23b34e	-0.00999148
48	0xbf44f121	-0.76930434
49	0x3e9810f3	0.2970043
50	0xbf033a09	-0.5126043
51	0xbf19fd51	-0.60152155
52	0x3e9053a5	0.28188816
53	0xbdc44c65	-0.095848836
54	0xbdc3e5e0	-0.095653296
55	0xbe3290b8	-0.17438018
56	0xbca113d6	-0.019662779
57	0xbe014192	-0.1262267
58	0xbde148e2	-0.110002294
59	0x3a8bea1a	0.0010674626
60	0xbbafca9e	-0.00536473
61	0xbd8eb30a	-0.06967743
62	0xbe0686bf	-0.13137339
63	0x3d9dd76d	0.07707105

GAT_layers.1.GAT_heads.1.w.weight f4 [1, 128]
0	0x3e2d5dd0	0.16930318
1	0x3eeac203	0.45851144
2	0xbdc3c401	-0.09558869
3	0xbe19f3e0	-0.15034437
4	0xbe1748e1	-0.14773895
5	0x3e4716c6	0.19442281
6	0x3e14081a	0.14456216
7	0xbd487ae8	-0.048945338
8	0x3e29c0a3	0.16577391
9	0xbec50069	-0.38476875
10	0xbbb5afa7	-0.005544621
11	0x3dae7363	0.08518102
12	0xbe8f72e8	-0.28017354
13	0xbd3b2339	-0.045687888
14	0xbdfbf789	-0.12303073
15	0xbdda2d0a	-0.10653122
16	0xbd341985	-0.04396965
17	0x3ee30758	0.4434154
18	0xbc6e1b52	-0.014532881
19	0xbdfc6547	-0.123240046
20	0x3d232742	0.03983236
21	0xbe54dc3f	-0.20787142
22	0xbb872dd2	-0.0041253353
23	0x3e163330	0.14667964
24	0xbe931004	-0.28723156
25	0xbe673bf7	-0.22581469
26	0x3d9837e8	0.07432538
27	0xbd48e946	-0.049050592
28	0x3d12ec3d	0.035869826
29	0x3d95f738	0.07322544
30	0x3e1b8746	0.15188321
31	0xbe1639f3	-0.14670543
32	0xbdac72fc	-0.08420369
33	0xbd0e3ed0	-0.03472787
34	0xbd3b1bff	-0.045680996
35	0xbdb39785	-0.087691344
36	0xbe01ab96	-0.12663111
37	0xbca67bd7	-0.020322723
38	0x3e8b6746	0.2722723
39	0xbd1bdbb0	-0.038051307
40	0xbd67bf20	-0.056578755
41	0x3d66f1d8	0.056382984
42	0xbdaa2448	-0.08307701
43	0xbdaefa31	-0.08543814
44	0x3d50bae8	0.050959498
45	0xbd3c35bc	-0.045949683
46	0xbe351fb2	-0.17687872
47	0x3e026254	0.12732822
48	0xbdd33c9a	-0.10314293
49	0xbdff6261	-0.12469936
50	0x3d73b7dd	0.059501518
51	0x3d0fab2a	0.035075344
52	0x3d708ad8	0.05872616
53	0x3d6deda4	0.05808796
54	0x3dd583d8	0.10425538
55	0xbda2cda6	-0.079493806
56	0xbe393873	-0.1808794
57	0xbe3dce1d	-0.18535657
58	0xbdee5f2c	-0.11639246
59	0x3e27f348	0.16401398
60	0x3dcbece1	0.099572904
61	0x3e111928	0.14169753
62	0x3c2d1cd0	0.0105659515
63	0xbe1a901a	-0.15094033
64	0xbe4e8883	-0.20169263
65	0x3f80c6a1	1.0060617
66	0xbf0e4f2b	-0.5558955
67	0x3c92937e	0.017892595
68	0xbda9edc9	-0.08297307
69	0x3e3c50e9	0.1839024
70	0x3e20bac7	0.1569625
71	0xbd151518	-0.03639707
72	0x3d8c473d	0.06849525
73	0x3e56ce0e	0.20977041
74	0x3e99d655	0.30046335
75	0x3ebd9e50	0.37034845
76	0xbe8b214b	-0.27173838
77	0xbdab5763	-0.08366277
78	0xbdb54840	-0.08851671
79	0x3ebca96e	0.36848015
80	0x3eefe2b1	0.4685264
81	0x3f2ebacd	0.68253785
82	0x3f058477	0.5215525
83	0x3f724a79	0.94644886
84	0xbea50fd2	-0.32238632
85	0x3f0058ea	0.5013567
86	0xbd718f3d	-0.058974493
87	0x3f26133e	0.6487311
88	0xbeab5b14	-0.33467925
89	0x3f332568	0.6997895
90	0x3f8cc787	1.0998391
91	0xbe928685	-0.28618255
92	0xbe34d5b2	-0.17659643
93	0xbe23382a	-0.15939394
94	0xbdb56920	-0.08857942
95	0x3ea6ab32	0.32552487
96	0xbf0c20b2	-0.5473739
97	0xbeada726	-0.33916587
98	0x3d56217c	0.052278027
99	0xbf0f7f34	-0.5605347
100	0xbeaea969	-0.34113625
101	0x3edb44c4	0.42825902
102	0xbe00e7a8	-0.1258837
103	0x3e2ee274	0.17078573
104	0xbea5c9e9	-0.32380608
105	0x3db2a1a8	0.0872224
106	0xbed96fd3	-0.42468128
107	0x3e11a429	0.14222778
108	0x3d940d90	0.07229149
109	0x3e56064a	0.20900837
110	0xbeb7a533	-0.35868225
111	0xbe1b804e	-0.15185663
112	0x3d5f86d0	0.054571927
113	0xbeda17c0	-0.42596245
114	0x3d54fed9	0.052000854
115	0xbdcf0067	-0.101074986
116	0x3c475fc0	0.012168825
117	0x3deefd05	0.116693534
118	0x3e594612	0.21218136
119	0x3f05135c	0.51982665
120	0xbd02753c	-0.031850085
121	0xbecdb57e	-0.4017753
122	0xbd7e99aa	-0.062158264
123	0xbc8516c8	-0.016246215
124	0x3d9a0935	0.07521287
125	0xbd78d079	-0.06074569
126	0x3d9ec5ec	0.07752594
127	0xbed26654	-0.41093695

GAT_layers.2.GAT_heads.0.f.weight f4 [64, 256]
0	0x3c0c1e20	0.008552104
1	0xbe48996f	-0.1958978
2	0xbd97a585	-0.07404617
3	0x3d3feeb3	0.0468585
4	0x3d2cf05f	0.042221423
5	0xbd8d754c	-0.06907138
6	0xbe41dea7	-0.18932591
7	0x3df551da	0.119785026
8	0x3da5d486	0.08097176
9	0x3cec8e45	0.028876433
10	0x3da42415	0.080146946
11	0xbcafeec8	-0.021476164
12	0xba7cf178	-0.0009649019
13	0x3d404d14	0.046948507
14	0xbe1e34d0	-0.15449834
15	0x3de22193	0.1104156
16	0xbe0b94fd	-0.13631053
17	0xbe203a13	-0.15647154
18	0x3cae315f	0.021263776
19	0xbe0ab620	-0.13546038
20	0xbeb24db4	-0.34824908
21	0x3dcba703	0.09943964
22	0xbe364617	-0.17800175
23	0xbd624d44	-0.055249467
24	0xbde48fc1	-0.111602314
25	0xbdf9cba1	-0.12197042
26	0x3dd8330c	0.105566114
27	0x3da7e7bd	0.081984974
28	0xbe199fbd	-0.15002342
29	0x3d5622e1	0.052279357
30	0xbe4080f4	-0.18799192
31	0xbe1b3dca	-0.1516029
32	0x3ce0bd88	0.027434126
33	0xbe1b8523	-0.15187506
34	0xbd53c84e	-0.051704697
35	0x3d83abdb	0.06429263
36	0x3dbe3713	0.09287848
37	0xbe681603	-0.22664647
38	0xbdf4ef59	-0.119597144
39	0xbe2093d3	-0.1568139
40	0xbe07396b	-0.13205497
41	0xbdaebcd0	-0.08532107
42	0x3d92c137	0.07165759
43	0x3dab7d45	0.08373503
44	0xbde292ca	-0.11063154
45	0xbb96f773	-0.004607135
46	0xbe3d14e4	-0.18465
47	0xbe3d1da3	-0.18468337
48	0x3cc32b51	0.023824366
49	0xbe1c3530	-0.15254664
50	0x3df38304	0.118902236
51	0xbd5c0f4b	-0.053725522
52	0xbd8a4c88	-0.067528784
53	0xbde87f5f	-0.11352419
54	0xbe38144b	-0.17976491
55	0x3e07ce9a	0.13262406
56	0xbd8fc081	-0.07019139
57	0xbc2ba34f	-0.0104759475
58	0xbd851401	-0.06497956
59	0x3c008bc5	0.007845824
60	0xbdc509de	-0.09621023
61	0xbd69339a	-0.056933977
62	0xbd8f4173	-0.06994905
63	0xbe8ebbd1	-0.27877668
64	0xbee969ee	-0.4558863
65	0xbe3a0b4a	-0.18168369
66	0xbdc9ef99	-0.09860153
67	0xbda26500	-0.079294205
68	0xbd33b83d	-0.043876875
69	0xc014db80	-2.3258972
70	0xc0c118e7	-6.03429
71	0x3f5577e4	0.83386064
72	0x3dd8805c	0.105713576
73	0xbcf48615	-0.029849092
74	0x3e00151f	0.12508057
75	0x3e3069ea	0.17227903
76	0xbee572a5	-0.4481403
77	0x3f4b6bc6	0.79461324
78	0xbf79540c	-0.9739387
79	0xbd5593ad	-0.052142788
80	0x3ea7824c	0.32716596
81	0xbe3586bf	-0.17727183
82	0xbd0ca48e	-0.03433662
83	0xbe857b10	-0.26070452
84	0x3bd0d30c	0.006372815
85	0x3dfebbf4	0.12438193
86	0xbc95a422	-0.018266741
87	0xbe91c087	-0.284672
88	0xbc8c36d2	-0.017115984
89	0x3f376db1	0.7165175
90	0x3e5a594b	0.21323125
91	0x3e54f458	0.20796335
92	0xbf3be6a6	-0.73398817
93	0xbfde9d28	-1.739171
94	0xbf1885cc	-0.5957916
95	0xbf67b9f9	-0.90518147
96	0xbdcd0d32	-0.100122824
97	0x3de481a4	0.111575395
98	0xbe1c2a68	-0.15250552
99	0xbf89ad4a	-1.0756009
100	0x3e6b9c86	0.23008928
101	0xbe9f8a4e	-0.31160206
102	0xbe4eda6e	-0.20200512
103	0xbdc914d5	-0.098184265
104	0x3f3d0e86	0.73850286
105	0xbe9c0ef2	-0.30480152
106	0xbdd1136f	-0.10208785
107	0xc00cc5a5	-2.1995633
108	0xbde696d0	-0.11259234
109	0x3d1b856c	0.037969038
110	0xbf640f74	-0.8908608
111	0x3e94e403	0.2908021
112	0x3e13e4fc	0.1444282
113	0xbdb13d7b	-0.086543046
114	0x3ec174d9	0.3778446
115	0xbebad7ec	-0.3649286
116	0x3e225566	0.1585289
117	0x3ea86f95	0.3289763
118	0xbd547360	-0.051867843
119	0xbe17d12d	-0.14825888
120	0xc011bae3	-2.2770317
121	0xbf9171bc	-1.1362834
122	0x3ddfaab4	0.10921231
123	0xbf89e9d1	-1.077448
124	0x3f0b6af4	0.5446007
125	0x3ac84873	0.0015280381
126	0xbb56f61b	-0.00328005
127	0x3f5d4544	0.86433816
128	0xbc1a5116	-0.009418746
129	0x3dbfb815	0.09361283
130	0x3d8b79d6	0.06810348
131	0xbd569b17	-0.052394
132	0x3d134f35	0.03596421
133	0x3dd55213	0.10416045
134	0xbda14b97	-0.07875746
135	0xbd860cad	-0.065453865
136	0x3dd74344	0.10510877
137	0xbdfe7e57	-0.12426441
138	0xbc2c052e	-0.010499282
139	0x3dcf18f8	0.10112184
140	0x3bb577bf	0.0055379565
141	0xbd8afef4	-0.0678691
142	0xbe447df9	-0.1918868
143	0x3d5edfd5	0.05441268
144	0xbd53e732	-0.051734157
145	0x3de56bf6	0.112022325
146	0x3d23cfe9	0.0399932
147	0x3cb49eed	0.022048438
148	0xbd774ab1	-0.060373966
149	0x3dcaa373	0.09894457
150	0xbe0d1e57	-0.13781105
151	0x3d32bd0c	0.04363732
152	0xbe1eef9f	-0.15521096
153	0x3b2e407b	0.0026588726
154	0x3dc1003e	0.09423874
155	0xbd80f2cb	-0.06296309
156	0xbe098c1a	-0.13432351
157	0xbd854ca0	-0.06508756
158	0xbd7ab6f2	-0.061209626
159	0x3c7d89bf	0.015474736
160	0x3d036930	0.032082736
161	0x3dfe96c5	0.12431101
162	0x3db0297e	0.08601664
163	0x3e0f30ca	0.13983455
164	0xbdbea8fb	-0.09309574
165	0xbe893a9b	-0.26802525
166	0xbe294047	-0.16528426
167	0xbe0bd609	-0.13655867
168	0x3d46259c	0.04837571
169	0xbdffd00e	-0.12490855
170	0xbc529bd8	-0.012854539
171	0x3a169ad5	0.00057451177
172	0xbd9b0e16	-0.07571046
173	0xbe0a0361	-0.13477851
174	0xbdd724cc	-0.10505065
175	0x3d0940b1	0.03350896
176	0xbdd590a9	-0.10427982
177	0x3dd38b56	0.103293106
178	0xbe05783e	-0.1303415
179	0x3dc5a503	0.09650614
180	0xbddd05fe	-0.107921585
181	0xbe3306bf	-0.17483042
182	0xbe0ce4ca	-0.13759151
183	0x3e0b81d6	0.13623747
184	0x3d927d3f	0.07152795
185	0xbe0437cc	-0.1291191
186	0xbdccab87	-0.09993654
187	0x3e17b088	0.14813435
188	0xbdfee1dc	-0.12445423
189	0x3e02e9f4	0.12784559
190	0x3e288da3	0.1646028
191	0x3d3097a0	0.04311335
192	0xbf858af8	-1.0433035
193	0xbdcdf10f	-0.10055744
194	0x3e226a29	0.1586081
195	0xbdc992fb	-0.098424874
196	0xc044f561	-3.0774767
197	0xbfb9d721	-1.4518777
198	0xc02edec9	-2.7323477
199	0xbf2983b8	-0.6621661
200	0xbeae09b8	-0.3399179
201	0x3dc1629c	0.09442636
202	0x3dd59f40	0.10430765
203	0xbe1ef2ec	-0.15522355
204	0xbf1a093a	-0.6017033
205	0xbf854d2d	-1.0414177
206	0x3f029a14	0.51016355
207	0x3f1602e1	0.5859814
208	0x3e48a0b8	0.1959256
209	0x3d50b38c	0.05095248
210	0x3f199ae2	0.6000196
211	0x3d66642b	0.05624787
212	0xbfe93933	-1.8220581
213	0xbe116fe5	-0.1420284
214	0xbd660fbf	-0.05616736
215	0x3da68675	0.081311144
216	0xbe1f8cae	-0.15581009
217	0xc0004e55	-2.004781
218	0xbf0b9263	-0.54520243
219	0xbd24a38b	-0.04019503
220	0xbee207a6	-0.4414646
221	0xbf2bd0f9	-0.6711574
222	0xc018eddc	-2.3895178
223	0xbe689d12	-0.22716168
224	0xbcd1fdff	-0.02563381
225	0xbea50616	-0.32231206
226	0xbec652b0	-0.3873496
227	0xbf9db89b	-1.2321962
228	0x3f0c73b4	0.5486405
229	0xbfc82431	-1.5636045
230	0xbf767225	-0.9626792
231	0x3d41f39c	0.047351465
232	0x3eb51fde	0.35375875
233	0xc0141607	-2.3138444
234	0x3e755809	0.23959364
235	0xbed95656	-0.42448682
236	0x3e49c69c	0.1970467
237	0x3f2f975a	0.6859032
238	0xbf61be96	-0.88181436
239	0x3d4ce6be	0.05002474
240	0x3e385e10	0.18004632
241	0x3f09949c	0.53742385
242	0xbe6e5650	-0.23275113
243	0x3ce8ed27	0.028433396
244	0xbfaabf2e	-1.3339593
245	0xbf983ba6	-1.1893203
246	0xbde37552	-0.111063614
247	0x3d058c2a	0.032604374
248	0xbe64ccf8	-0.22343814
249	0x3e6ebc1f	0.2331395
250	0x3dafc26d	0.08582006
251	0xbe11ea37	-0.14249502
252	0x3e9f383d	0.31097594
253	0x3d152ee4	0.03642167
254	0xbca07873	-0.019588685
255	0xbdcc2758	-0.09968442

GAT_layers.2.GAT_heads.0.f.bias f4 [64]
0	0xbdb3aa8c	-0.087727636
1	0xbe4f78e0	-0.20260954
2	0xbdaf4fb5	-0.08560125
3	0xbcd31db6	-0.025771003
4	0xbc0e6a32	-0.008692311
5	0xbc850bcf	-0.016240982
6	0xbe388b71	-0.18021943
7	0xbef2fe80	-0.47459793
8	0xbd9f1665	-0.07767943
9	0xbe98783d	-0.29779235
10	0xbeb53b0a	-0.35396606
11	0xbd8c5670	-0.06852424
12	0xbe764c47	-0.24052535
13	0xbd682991	-0.056680266
14	0xbd53016c	-0.051515028
15	0xbeaabbc9	-0.33346394
16	0xbc733e84	-0.014846448
17	0xbcf55290	-0.029946595
18	0xbe5cfbf2	-0.21580485
19	0xbd86ef24	-0.06588581
20	0xbe5635f1	-0.20919015
21	0xbc81b02f	-0.015831081
22	0xbe71229d	-0.2354836
23	0xbeaf0d97	-0.34190056
24	0xbc0f166f	-0.008733376
25	0xbce65aef	-0.028119532
26	0xbc78bc4b	-0.015181611
27	0xbd77fed2	-0.06054575
28	0xbe4b93a0	-0.19880533
29	0xbe9d98ef	-0.30780742
30	0xbe1bf044	-0.15228373
31	0xbf0b6e02	-0.54464734
32	0xbda8326d	-0.08212743
33	0xbd75df92	-0.060027666
34	0xbe25d657	-0.16195045
35	0xbea78194	-0.32716048
36	0xbcaeed72	-0.021353457
37	0xbd8a71d7	-0.067599945
38	0xbdf3b8c1	-0.119004734
39	0xbc57f4dc	-0.013180938
40	0xbe32ccbb	-0.17460911
41	0xbe246fd9	-0.16058291
42	0xbd9243c0	-0.071418285
43	0xbe994da7	-0.29942057
44	0xbe30ce52	-0.17266205
45	0xbec6ecfc	-0.3885268
46	0xbcfbb8b5	-0.030727724
47	0xbe5c3ee7	-0.2150837
48	0xbb8a18e6	-0.004214394
49	0x3df5ab44	0.11995557
50	0xbe64922f	-0.2232139
51	0xbc89e443	-0.016832476
52	0xbeb61dab	-0.3556951
53	0xbdb5bcf3	-0.0887393
54	0xbc9c6121	-0.019089283
55	0xbea3a561	-0.31962112
56	0xbcffa909	-0.031208532
57	0xbe023627	-0.1271597
58	0xbdb32990	-0.08748162
59	0xbc0025d0	-0.007821515
60	0xbe00c0ac	-0.12573498
61	0x3e8b48bd	0.27203932
62	0xbc66c780	-0.01408565
63	0xbe4f0940	-0.20218372
