saved/201911221602.pt (torch_old, 849329 bytes, 40 tensors)

GAT_layers.0.GAT_heads.0.f.weight f4 [32, 6]
0	0xbe93dcdf	-0.2887945
1	0xbe6d18db	-0.23154013
2	0xbe820cbf	-0.2540035
3	0xbe609456	-0.21931586
4	0xbe52c513	-0.2058299
5	0xbe09590c	-0.13412875
6	0x3e5b42c6	0.21412191
7	0xbe2feee6	-0.17180976
8	0xbe8bed55	-0.27329507
9	0xbe61b73a	-0.22042552
10	0xbe2f6a8d	-0.1713049
11	0x3d9e52b0	0.07730615
12	0x3e7a1c72	0.24424914
13	0x3c9ab7a0	0.018886387
14	0x3d2c7b98	0.042110056
15	0xbe98b4b3	-0.29825363
16	0xbe9c8cc0	-0.30576134
17	0x3eb0145d	0.34390536
18	0x3e0804a8	0.13283026
19	0xbe265e56	-0.16246924
20	0x3eba33b8	0.36367583
21	0x3f059cc2	0.5219232
22	0xbdf0490f	-0.11732685
23	0xbe9bb971	-0.30414918
24	0xbd1fc458	-0.039005607
25	0x3e3dd2a6	0.18537387
26	0xbde77398	-0.11301345
27	0xbe73b163	-0.23798136
28	0x3e084f0a	0.13311401
29	0x3e402e1e	0.18767592
30	0xbeb90016	-0.36132878
31	0x3eaed827	0.34149286
32	0x3da50ef0	0.0805949
33	0x3f3637a8	0.71178675
34	0x3e3ba9e6	0.1832653
35	0x3ed001ef	0.40626475
36	0xbe6f691e	-0.23379943
37	0xbe592cd7	-0.21208511
38	0xbe39195a	-0.18076077
39	0x3ef86662	0.48515612
40	0xbe92961d	-0.28630152
41	0xbc611131	-0.013737009
42	0xbe9d7957	-0.30756637
43	0x3d91e4e8	0.071237385
44	0x3ea94907	0.33063528
45	0xbea96970	-0.33088255
46	0x3d65c748	0.056098253
47	0xbe0ff54c	-0.14058417
48	0x3e80869b	0.25102696
49	0x3e957cc7	0.2919676
50	0x3d9ed554	0.07755533
51	0xbe8d5b3e	-0.27608675
52	0x3ea5a715	0.32354036
53	0xbe86e1a7	-0.26344034
54	0x3e2b6ec1	0.16741468
55	0x3da3cdba	0.079982236
56	0x3dd14e08	0.102199614
57	0xbd8149d6	-0.06312911
58	0xbd31a7c5	-0.043372888
59	0x3d86f96a	0.06590541
60	0x3e823e18	0.25438
61	0x3d8cf066	0.0688179
62	0xbe0dfded	-0.13866396
63	0x3e95af75	0.29235426
64	0x3e4f8f79	0.20269574
65	0x3eaff0be	0.3436336
66	0x3eb4826b	0.3525575
67	0x3e9991a0	0.29993916
68	0x3d2ecc8f	0.04267555
69	0xbe8509f3	-0.25984153
70	0x3e1e158e	0.1543791
71	0x3d5e6921	0.054299477
72	0x3d85275e	0.06501649
73	0xbd8e12c1	-0.06937171
74	0xbdab91d5	-0.08377425
75	0xbd63464e	-0.05548697
76	0xbdd7e760	-0.10542178
77	0xbe06cd1e	-0.13164183
78	0x3e8b52d9	0.27211645
79	0xbd1feed8	-0.03904614
80	0xbe0b8947	-0.13626586
81	0xbdd05b79	-0.10173697
82	0x3c789c8a	0.015174041
83	0xbe0ac7a5	-0.13552721
84	0xbebb6843	-0.36602983
85	0xbe6d1777	-0.23153482
86	0x3e8cd6ff	0.2750778
87	0xbd602950	-0.0547269
88	0xbe5dc20c	-0.21656054
89	0xbe75efbf	-0.24017237
90	0xbe7ac8c9	-0.24490656
91	0xbd579200	-0.05262947
92	0xbd01c160	-0.031678557
93	0xbe5ad726	-0.21371135
94	0xbe888258	-0.26661944
95	0x3e57e2f6	0.21082672
96	0x3e964e0c	0.2935642
97	0xbcea5404	-0.028604515
98	0x3e98df46	0.29857844
99	0xbda4982c	-0.08036837
100	0xbe234b6a	-0.15946737
101	0xbe59130b	-0.2119867
102	0xbe0d509b	-0.1380028
103	0x3e9f3456	0.31094617
104	0x3ddc9ada	0.10771723
105	0xbc1e8aec	-0.009676676
106	0x3e477535	0.19478305
107	0x3e4cc05e	0.19995257
108	0x3d9ad983	0.07561018
109	0xbcff5898	-0.031170174
110	0x3df849f7	0.12123483
111	0xbcd1f55d	-0.025629694
112	0xbe290838	-0.16507041
113	0x3e8d0357	0.2754161
114	0xbe81086c	-0.25201738
115	0xbd78f392	-0.06077916
116	0x3e2d29a3	0.16910414
117	0x3f99616a	1.1982853
118	0x3eab8a21	0.33503821
119	0x3eb2a5da	0.3489216
120	0x3e90dd30	0.28293753
121	0xbea243ee	-0.3169245
122	0xbedce96a	-0.4314683
123	0xbe2035dc	-0.15645546
124	0x3db959f9	0.09050364
125	0xbd0e571f	-0.034751054
126	0xbe26993d	-0.16269393
127	0xbeb109c0	-0.3457775
128	0xbead7723	-0.33879957
129	0xbe1af0c5	-0.15130909
130	0xbec0fac3	-0.37691316
131	0x3ea24c27	0.31698725
132	0xbe38b637	-0.1803826
133	0x3ce678e0	0.02813381
134	0x3d2212c0	0.039568663
135	0xbe819dfd	-0.25315848
136	0xbd84e748	-0.06489426
137	0x3dc2ee18	0.09518069
138	0x3da71294	0.0815784
139	0x3e7811ca	0.24225536
140	0x3d83e00c	0.06439218
141	0xbdbb0df8	-0.09133524
142	0xbd9e8efc	-0.07742116
143	0xbe81d128	-0.25354886
144	0xbebec510	-0.37259722
145	0x3ec64638	0.38725448
146	0xbe2c931b	-0.16852991
147	0x3f1a81e3	0.6035444
148	0x3e93dcd2	0.2887941
149	0xbd58dc71	-0.052944604
150	0xbe024718	-0.12722433
151	0xbd37ceaf	-0.044874843
152	0x3e1db5fb	0.15401451
153	0x3f1a16dd	0.60191137
154	0xbeab2d6a	-0.33433086
155	0x3d81007b	0.0629892
156	0x3e35130b	0.17683046
157	0xbc07d2f0	-0.0082900375
158	0xbdf36ed8	-0.11886376
159	0xbd55676b	-0.05210058
160	0xbeca3910	-0.3949666
161	0xbe1e70cf	-0.1547272
162	0xbeb65c59	-0.3561733
163	0x3ee99721	0.45623115
164	0xbc641d71	-0.013923035
165	0x3f1cd08b	0.6125571
166	0x3e69c681	0.2282963
167	0x3e6bf103	0.23041157
168	0xbeb8cbb1	-0.36092904
169	0xbcabac10	-0.02095607
170	0x3e036262	0.12830499
171	0xbd789450	-0.060688317
172	0x3dd49f44	0.1038194
173	0x3e961b63	0.2931777
174	0xbd99ad4c	-0.07503757
175	0xbe2bed23	-0.16789679
176	0x3d473060	0.04863012
177	0xbcf35050	-0.029701382
178	0xbd9bc2cc	-0.07605514
179	0x3ea6a61d	0.3254861
180	0xbe9b95d8	-0.3038776
181	0xbe0bbb50	-0.13645673
182	0x3e80e693	0.25175914
183	0xbc492680	-0.0122772455
184	0xbe636663	-0.22207026
185	0x3cd15500	0.025553226
186	0xbeaea2b6	-0.34108514
187	0xbecb084a	-0.39654762
188	0x3e70a04a	0.23498645
189	0xbdbead40	-0.093103886
190	0xbe07116c	-0.1319024
191	0xbebd0206	-0.36915606

GAT_layers.0.GAT_heads.0.f.bias f4 [32]
0	0x3e592678	0.21206081
1	0x3df0a2c8	0.11749798
2	0xbeac62a2	-0.33669
3	0x3dd342be	0.103154644
4	0xbece993d	-0.40351287
5	0xbea2568c	-0.31706655
6	0x3d314688	0.043280154
7	0x3d8957e8	0.0670622
8	0xbe0a718e	-0.1351988
9	0xbf17b0ae	-0.59253967
10	0xbf090f4b	-0.5353896
11	0x3e7070d3	0.23480539
12	0x3e4280f2	0.18994501
13	0xbe0b5c1c	-0.13609356
14	0xbe9983f4	-0.29983485
15	0x3d8dd76c	0.06925854
16	0xbf0eb12a	-0.5573908
17	0x3ea3dfe8	0.32006764
18	0x3d6c3f5f	0.057677623
19	0x3e983e06	0.2973482
20	0x3c3eaad8	0.011637412
21	0x3ec2129c	0.37904823
22	0x3ebbec1c	0.36703575
23	0x3ec638a0	0.38715076
24	0xbed20c94	-0.4102522
25	0xbefb004d	-0.49023667
26	0xbd577a5b	-0.05260692
27	0xbe526773	-0.20547275
28	0xbe8dddc0	-0.27708244
29	0x3ec7866c	0.38969743
30	0xbdc817b4	-0.09770146
31	0xbe83870c	-0.2568897

GAT_layers.0.GAT_heads.0.w.weight f4 [1, 6]
0	0xbf1bbbb8	-0.6083331
1	0x3f5695e4	0.83822465
2	0x3ec2a7d4	0.38018668
3	0x3f9f96df	1.2467917
4	0x3fa4466e	1.2833993
5	0xbfa10a50	-1.2581272

GAT_layers.0.GAT_heads.1.f.weight f4 [32, 6]
0	0x3e0ab7aa	0.13546625
1	0x3f9835f7	1.1891469
2	0x3e7cb7cf	0.24679492
3	0xbd7f2b0e	-0.06229692
4	0x3f184db8	0.5949359
5	0xbe009b65	-0.12559278
6	0xbe2c306f	-0.16815351
7	0x3f52ae97	0.8229765
8	0x3ef46d0c	0.47739446
9	0xbd72caaf	-0.059275325
10	0x3f652c91	0.8952113
11	0x3ea012b6	0.31264275
12	0xbe05ebb7	-0.130782
13	0x3e5cb335	0.21552737
14	0x3c2dd8d2	0.010610776
15	0x3c538ffb	0.012912746
16	0x3ed3002d	0.41211072
17	0x3f18121d	0.5940264
18	0xbf041b12	-0.51603806
19	0xbea8f537	-0.32999584
20	0xbbf5f2f7	-0.0075057703
21	0xba94299d	-0.0011303906
22	0xbe0fb242	-0.14032844
23	0x3f1999c7	0.6000027
24	0xbf470c3a	-0.7775303
25	0xbf05a9b5	-0.5221208
26	0x3ed1556e	0.4088549
27	0x3d084122	0.03326524
28	0xbed7c2e3	-0.42140874
29	0x3f362120	0.71144295
30	0x3e7c7dde	0.2465739
31	0xbf05beb6	-0.52244127
32	0xbef08b74	-0.46981394
33	0xbd35c026	-0.0443727
34	0xbe86c385	-0.26321045
35	0xbf086377	-0.5327677
36	0xbe4d0bff	-0.20024107
37	0x3e8488d3	0.2588564
38	0xbe6e29eb	-0.23258178
39	0xbc1e3046	-0.009655064
40	0x3ebb15e2	0.36540133
41	0xbe6663fb	-0.22499077
42	0xbce49d64	-0.027907081
43	0x3e2ed9be	0.1707525
44	0xbee9ea7b	-0.45686707
45	0xbcdf5717	-0.027263207
46	0xbebd7f21	-0.37011054
47	0xbf5d097c	-0.86342597
48	0x3aa5e8f5	0.0012657928
49	0x3de6bb73	0.11266222
50	0xbf126774	-0.57189107
51	0x3ccf71c2	0.025322799
52	0x3f6b473d	0.91905576
53	0xbe36bef9	-0.17846288
54	0xbf4c41aa	-0.79787695
55	0x3e2941b7	0.16528974
56	0xbf77047b	-0.9649121
57	0x3d4bf8b8	0.049797744
58	0x3cb3dd45	0.021956095
59	0xbf9b4bc0	-1.2132492
60	0xbdb22215	-0.08697907
61	0x3daf4074	0.08557215
62	0x3d84cb11	0.06484044
63	0xbda4c724	-0.080457956
64	0xbf024802	-0.50891125
65	0x3ecc19cc	0.3986343
66	0x3d445541	0.047932867
67	0xbd12c09b	-0.035828214
68	0x3ec9881b	0.39361653
69	0x3d072f63	0.033004176
70	0x3ea60068	0.32422185
71	0x3f282358	0.6567893
72	0x3c290313	0.010315674
73	0xbf2d6460	-0.67731285
74	0xbe236492	-0.15956333
75	0xbc1df3d2	-0.009640651
76	0x3d605baf	0.054774936
77	0x3d71c4c0	0.059025526
78	0x3b092813	0.0020928427
79	0x3f195b1e	0.5990466
80	0x3e3b0648	0.18264115
81	0xbce3798f	-0.027767925
82	0x3f53d972	0.8275367
83	0x3c6ef14c	0.014583897
84	0x3ea20da0	0.3165102
85	0x3d026cf5	0.03184219
86	0x39af731f	0.00033464373
87	0xbe8eda6a	-0.27901012
88	0xbef9d8b7	-0.48798153
89	0x3df1280c	0.117752165
90	0xba946ea7	-0.0011324481
91	0xbe0cb9e4	-0.13742787
92	0x3f467ca6	0.7753395
93	0x3cb28273	0.021790719
94	0xbe2da548	-0.16957581
95	0x3f67c6c0	0.90537643
96	0x3d53dd6a	0.05172483
97	0x3d986a92	0.07442202
98	0x3c72f0f3	0.014827955
99	0xbd8d303f	-0.06893968
100	0x3f4455aa	0.76693213
101	0x3f369770	0.71324825
102	0x3d7fbafb	0.062434178
103	0x3ec8dd52	0.39231354
104	0x3ebe09a0	0.37116718
105	0xbda052d5	-0.07828299
106	0x3e974246	0.2954275
107	0x3e491d54	0.19640094
108	0x3ee44aba	0.44588262
109	0x3c927560	0.017878234
110	0x3e9450ee	0.28967994
111	0xbd7c0c0e	-0.061534934
112	0x3de58bb2	0.112082854
113	0xbdeba6b4	-0.115064055
114	0x3b151b83	0.0022751994
115	0xbea09d0b	-0.31369814
116	0x3e24292e	0.16031334
117	0xbe485406	-0.19563302
118	0xbda546c0	-0.08070135
119	0xbe4ff5f1	-0.20308663
120	0x3c6320de	0.013862817
121	0xbfa0d760	-1.2565727
122	0x3f2b5c57	0.66937774
123	0xbc2dff39	-0.010619932
124	0xbfcc2d0d	-1.5951248
125	0x3e84b5d7	0.25919983
126	0x3c6993a9	0.014256396
127	0x3eef3643	0.46721086
128	0xbe9ebc02	-0.31002814
129	0xbcbea60b	-0.023272535
130	0x3f0e818e	0.55666435
131	0xbf47f602	-0.78109753
132	0x3cf4dfde	0.029891904
133	0x3efefa2a	0.49800235
134	0xbef1e5f7	-0.47245762
135	0xbc410ff9	-0.011783593
136	0x3f14a758	0.58067846
137	0xbf4dcd66	-0.8039154
138	0x3ebf26dd	0.37334338
139	0x3de2c891	0.11073411
140	0xbfc8de4c	-1.569284
141	0xbe5a29f3	-0.21305065
142	0xbe1a553d	-0.15071578
143	0xbf4c32d6	-0.7976507
144	0x3dd7a877	0.10530179
145	0x3f8a8fa1	1.0825082
146	0x3e89e84b	0.26935038
147	0xbd6993d1	-0.057025734
148	0x3fb09d86	1.3798072
149	0x3ed79b82	0.4211083
150	0x3e38b7f8	0.18038929
151	0x3edc05dc	0.4297322
152	0xbc6e2f3d	-0.01453763
153	0xbe88b55c	-0.26700866
154	0x3eca828c	0.39552724
155	0x3ed8cce2	0.42343813
156	0x3cf67150	0.030083328
157	0x3f2fc70c	0.68663096
158	0x3dc716e0	0.0972116
159	0x3dd939cd	0.10606728
160	0x3e791e50	0.2432797
161	0xbee67c93	-0.45016918
162	0x3e1315a7	0.14363728
163	0x3c1b2185	0.009468441
164	0x3dd1777d	0.10227869
165	0xbe3f6dd8	-0.18694246
166	0x3dd79f6d	0.10528455
167	0x3ea7de94	0.32787
168	0xbf3ee99d	-0.74575216
169	0xbf6fb878	-0.9364085
170	0x3ee219ab	0.44160208
171	0xbf03f344	-0.5154307
172	0xbfc586e7	-1.5431794
173	0xbdba6c50	-0.0910269
174	0xbc8be3a0	-0.017076313
175	0xbe6add14	-0.22935897
176	0x3ad68600	0.0016366839
177	0xbe2e6e70	-0.17034316
178	0xbdde4988	-0.10853869
179	0xbdfe6d18	-0.12423152
180	0xbebb7551	-0.36612943
181	0x3d83497f	0.06410503
182	0xbf3b6a3d	-0.7320898
183	0x3d8979ec	0.06712708
184	0x3ea4647e	0.3210792
185	0xbd6fba1c	-0.058527097
186	0x3ee89d99	0.45432737
187	0x3f577171	0.8415747
188	0x3d908427	0.07056456
189	0xbce2be02	-0.027678493
190	0x3f1a705c	0.60327697
191	0x3f18e148	0.5971875

GAT_layers.0.GAT_heads.1.f.bias f4 [32]
0	0xbe5531bc	-0.20819753
1	0xbf11b48d	-0.56916124
2	0xbf07aff5	-0.53002864
3	0xbf12c977	-0.5733866
4	0xbd9c66a6	-0.07636766
5	0x3f8883d2	1.0665228
6	0xbe751308	-0.23933041
7	0x3ea0cb64	0.31405175
8	0xbd0c61ba	-0.034272887
9	0x3eda8ff9	0.42687967
10	0x3ebd3f1c	0.3696221
11	0xbea3c817	-0.31988594
12	0xbebb6a57	-0.36604568
13	0xbe09f9c3	-0.13474183
14	0x3edf860e	0.43656963
15	0xbe29099a	-0.16507569
16	0xbd5801ee	-0.052736215
17	0xbf133403	-0.5750124
18	0xbef6c9ca	-0.48200828
19	0xbe798813	-0.24368314
20	0x3f0c8559	0.5489097
21	0x3e29972a	0.16561571
22	0x3edae20b	0.42750582
23	0x3d8d3255	0.06894366
24	0xbdfc9f8e	-0.1233512
25	0x3ece1497	0.40250084
26	0xbf0b685b	-0.5445611
27	0xbcc88e0b	-0.024481794
28	0x3e856c1c	0.26059043
29	0xbd79fd78	-0.061032742
30	0x3d7a7acc	0.061152264
31	0xbe9711c3	-0.2950574

GAT_layers.0.GAT_heads.1.w.weight f4 [1, 6]
0	0xbe55f432	-0.20893934
1	0x3d013eea	0.03155414
2	0x3f63b0fc	0.8894193
3	0x3d01cf52	0.031691857
4	0xbf6d1b7c	-0.9262006
5	0xbf190b86	-0.5978321

GAT_layers.0.GAT_heads.2.f.weight f4 [32, 6]
0	0xbe5d440a	-0.21607986
1	0x3c205e2d	0.009788078
2	0xbeb79d5f	-0.35862252
3	0x3e36d683	0.17855267
4	0xbd9812d2	-0.07425465
5	0xbce82f7f	-0.02834296
6	0xbebbae1f	-0.3665628
7	0xbe64da9d	-0.2234902
8	0xbcacbc60	-0.021085918
9	0xbe9240cc	-0.2856506
10	0x3e9c7af7	0.30562565
11	0x3eb33a19	0.35005262
12	0x3db10b90	0.086447835
13	0x3e8b2c9f	0.2718248
14	0x3e44199a	0.19150391
15	0xbeae7e83	-0.34080896
16	0x3d2c57c8	0.042075902
17	0xbe214959	-0.15750636
18	0x3e0464d9	0.12929095
19	0xbe6d3d5b	-0.23167937
20	0xbe34f4e7	-0.17671548
21	0x3e1c91d3	0.15290003
22	0x3ed3e243	0.41383561
23	0x3ed52cb2	0.41635662
24	0xbd24541d	-0.04011928
25	0x3c613ca3	0.013747367
26	0xbea3ef5a	-0.32018548
27	0x3d1db967	0.03850689
28	0x3d1b61ff	0.037935253
29	0xbe4f8c07	-0.2026826
30	0xbec6ad74	-0.3880421
31	0x3e7f3df6	0.2492598
32	0xbe8c68de	-0.27423757
33	0xbea9df8e	-0.3317837
34	0x3e9a2731	0.30108026
35	0xbe4dde83	-0.20104413
36	0xbe8a61ec	-0.27027833
37	0xbe257272	-0.16156939
38	0xbec24af1	-0.379478
39	0xbebf1588	-0.37321115
40	0x3cebacd0	0.028768927
41	0xbec19080	-0.37805557
42	0x3e847832	0.25872952
43	0x3e999139	0.2999361
44	0xbd21e53a	-0.039525248
45	0xbea1e884	-0.31622708
46	0xbe0d249f	-0.13783501
47	0x3d93f2c4	0.07224038
48	0xbe4c385f	-0.19943379
49	0x3e814508	0.2524798
50	0xbd94bc69	-0.07262499
51	0x3e2f5f58	0.17126215
52	0x3e74d39b	0.23908846
53	0xbec9719c	-0.3934449
54	0xbd28d8f6	-0.041222535
55	0x3ea0b3b4	0.31387103
56	0x3e8a2a71	0.26985505
57	0x3d03c6ec	0.03217213
58	0x3e4cdb93	0.20005636
59	0x3d893dff	0.06701278
60	0x3d8b0911	0.06788839
61	0x3e8362ec	0.2566141
62	0xbf39829b	-0.72464913
63	0xbda5666f	-0.08076178
64	0xbe81d6b9	-0.25359133
65	0x3ce9906f	0.028511254
66	0x3d6b6f20	0.057479024
67	0x3e62df6e	0.22155544
68	0xbde29390	-0.110633016
69	0xbe82881d	-0.2549447
70	0xbe66e168	-0.22546923
71	0xbeb8f8ef	-0.3612742
72	0x3e2b53b2	0.16731146
73	0x3d8966ce	0.067090616
74	0x3d1e5c8a	0.03866247
75	0xbe514c82	-0.20439342
76	0xbcd69278	-0.026192889
77	0xbe85dbb8	-0.26144195
78	0x3cf89ddf	0.030348716
79	0x3eb807c0	0.35943413
80	0xbeba4233	-0.3637863
81	0xbd7c6a6c	-0.06162493
82	0x3e73bd3a	0.23802653
83	0x3bc25eab	0.0059316955
84	0xbbc0bc05	-0.0058817887
85	0x3dafba39	0.08580441
86	0x3e56ac75	0.20964225
87	0x3e81f0ed	0.25379124
88	0xbe16fc89	-0.14744772
89	0x3e84cfef	0.2593989
90	0xbd886219	-0.06659336
91	0x3d05339f	0.032519933
92	0xbe35c5fd	-0.17751308
93	0x3d62b0e5	0.05534448
94	0x3e9e645f	0.30935952
95	0xbc989a9c	-0.018628411
96	0xbda14532	-0.07874526
97	0xbe1f221a	-0.15540352
98	0xbddedd3b	-0.1088204
99	0x3d875166	0.066073224
100	0x3c3419b9	0.010992461
101	0x3ea06bfe	0.31332392
102	0xbe909e5d	-0.28245822
103	0xbd980634	-0.07423058
104	0xbead1257	-0.33803055
105	0x3a735e00	0.00092837214
106	0x3ea09c9f	0.31369492
107	0x3e9a6bef	0.30160472
108	0x3e5341f6	0.20630631
109	0xbe135ca2	-0.14390805
110	0xbc816d05	-0.015799055
111	0x3e3f85a1	0.18703319
112	0x3ea77315	0.32704988
113	0xbc3375cb	-0.010953377
114	0x3d31e4ad	0.043430973
115	0x3ec89a76	0.39180344
116	0x3e9698fc	0.29413593
117	0x3e14c218	0.14527166
118	0x3eb773ee	0.35830635
119	0xbc551af0	-0.013006911
120	0x3d13bba8	0.036067635
121	0xbe8a8f22	-0.27062327
122	0x3e4af4c6	0.19819936
123	0xbeb85247	-0.36000273
124	0xbdfbf210	-0.12302029
125	0x3de398cc	0.11113128
126	0x3a60a868	0.00085700164
127	0x3ea2f99c	0.31831062
128	0xbe791073	-0.24322681
129	0xbbe455d5	-0.00696824
130	0x3dd88aa9	0.10573322
131	0x3eb2d2ff	0.34926602
132	0x3d1522ed	0.03641026
133	0x3ebf698f	0.37385222
134	0x3ebc81e7	0.36817858
135	0xbd461b55	-0.04836591
136	0xbe98b1db	-0.29823193
137	0x3e14cd09	0.1453134
138	0xbd20f439	-0.03929541
139	0xbd6d357e	-0.057912342
140	0x3ea05122	0.313119
141	0x3cc4992f	0.023998825
142	0x3e5c1526	0.21492442
143	0x3eac6011	0.33667043
144	0xbe97489a	-0.29547578
145	0x3eb4a575	0.35282484
146	0xbea68d8e	-0.32529873
147	0xbe62ef44	-0.22161585
148	0x3ebc007f	0.36719128
149	0xbd3ad120	-0.045609593
150	0xbdf10ec0	-0.117703915
151	0xbe21b8db	-0.15793173
152	0xbe798aa3	-0.24369292
153	0xbeb995fc	-0.36247241
154	0xbec4fc5e	-0.3847379
155	0x3e1055d6	0.14095244
156	0xbe9ad6b9	-0.30241945
157	0x3d40d8c0	0.04708171
158	0xbeae5ac3	-0.3405362
159	0xbcdb2c10	-0.02675441
160	0x3e925c13	0.28585872
161	0xbb13a380	-0.0022527874
162	0xbd8581f1	-0.06518925
163	0x3ea69065	0.3253204
164	0xbed66e0c	-0.41880834
165	0x3d36a880	0.044594288
166	0x3ea4bb63	0.32174215
167	0x3e2fa86f	0.17154096
168	0xbe7719fc	-0.24131006
169	0xbe8e67bc	-0.27813518
170	0xbe6477a7	-0.22311269
171	0x3e52f7c5	0.20602329
172	0xbe3a8902	-0.18216327
173	0xbdec3f64	-0.11535528
174	0xbe401c81	-0.18760873
175	0xbebc9581	-0.36832812
176	0x3e97ca83	0.29646692
177	0xbd905228	-0.0704692
178	0x3ea120f5	0.31470457
179	0xbec67833	-0.3876358
180	0xbd9450bd	-0.07241962
181	0x3e8321eb	0.25611815
182	0x3e09c240	0.13453007
183	0x3cb128cb	0.021625897
184	0x3e28c4d7	0.16481338
185	0x3e141c0f	0.14463829
186	0x3e3a86eb	0.1821553
187	0xbe489bcc	-0.19590682
188	0xbe89888c	-0.2686199
189	0xbe6d030c	-0.23145694
190	0x3e865084	0.26233304
191	0x3ec125be	0.37724108

GAT_layers.0.GAT_heads.2.f.bias f4 [32]
0	0x3cbace63	0.022803491
1	0xbeab0a98	-0.3340652
2	0x3e7a6af8	0.24454868
3	0xbd56406b	-0.052307528
4	0xbf32bcd0	-0.69819355
5	0xbe795c8d	-0.24351712
6	0x3e9c617a	0.3054312
7	0x3e30b0bc	0.17254919
8	0xbf04d09a	-0.518808
9	0xbe41b429	-0.18916382
10	0xbebc609c	-0.36792457
11	0x3e43b5f0	0.19112372
12	0x3d9d8c2a	0.0769275
13	0xbe1dd7c9	-0.15414347
14	0xbe98add5	-0.29820123
15	0xbe45a046	-0.1929942
16	0xbe58ffb8	-0.21191299
17	0xbd84d00c	-0.06484994
18	0xbe40b556	-0.18819174
19	0x3c2700b7	0.0101930415
20	0xbeb3f7fc	-0.35150135
21	0xbe760100	-0.24023819
22	0xbe9e21c3	-0.30885133
23	0x3dcab25e	0.09897302
24	0x3e44ac64	0.19206387
25	0xbec6958e	-0.38785976
26	0xbdf592c0	-0.11990881
27	0xbcc1a0ef	-0.02363631
28	0xbe4ab916	-0.19797167
29	0x3ea53248	0.32264924
30	0x3d840721	0.06446672
31	0x3e971315	0.29506746

GAT_layers.0.GAT_heads.2.w.weight f4 [1, 6]
0	0x3ed87169	0.42274025
1	0x3e01702f	0.12640451
2	0xbe628086	-0.2211934
3	0x3f3cc36e	0.737357
4	0xbf0cbc72	-0.54975045
5	0x3f882d2f	1.0638789

GAT_layers.0.GAT_heads.3.f.weight f4 [32, 6]
0	0xbf7c0404	-0.9844363
1	0x3ec9c1f1	0.39405778
2	0x3f1513e3	0.5823347
3	0x3d5b0a63	0.053476702
4	0xbedf53eb	-0.43618712
5	0xbcec8aa7	-0.028874708
6	0xbda59431	-0.08084906
7	0x3f2f7db1	0.68551165
8	0x3ebadbb5	0.36495748
9	0x3e3db5a0	0.18526316
10	0x3ee4290b	0.44562563
11	0xbe2ff84c	-0.17184561
12	0xbb158763	-0.0022816292
13	0xbebb599b	-0.365918
14	0x3d6503e6	0.05591192
15	0xbe9cca67	-0.3062317
16	0x3d7b1473	0.0612988
17	0xbd51594f	-0.051110562
18	0xbebdce99	-0.37071684
19	0x3e99fd09	0.30075863
20	0x3e72b612	0.23702267
21	0xbf6dfee2	-0.92967045
22	0xbeb41b52	-0.35177094
23	0x3e343a0f	0.17600273
24	0xbde1e592	-0.11030115
25	0xbf64f1e9	-0.89431626
26	0x3e2727ea	0.1632382
27	0x3d6ea8ef	0.058266576
28	0xbfeabb96	-1.8338497
29	0xbd4a2e84	-0.049360767
30	0x3d80c1fd	0.06287
31	0xbdac9628	-0.084270775
32	0xbd83c5d7	-0.06434219
33	0xbda37a9f	-0.079823725
34	0x3dc95331	0.098303206
35	0xbd357c67	-0.044308092
36	0x3ddae192	0.106875554
37	0xbe9bc910	-0.30426836
38	0xc0259dab	-2.5877483
39	0xbf8abc49	-1.083871
40	0xbece3530	-0.40274954
41	0xbfce42e9	-1.6114169
42	0xbca9854c	-0.020693444
43	0xbd077f42	-0.033080347
44	0xbede57de	-0.43426412
45	0xbd97693b	-0.07393118
46	0x3f208b97	0.62713
47	0xbee2ee06	-0.44322222
48	0xbe6c096c	-0.23050469
49	0xbef370cd	-0.47546998
50	0xbe5b1329	-0.21394028
51	0xbf8a5ab9	-1.0808936
52	0xbeeb9b1d	-0.4601678
53	0x3eedcfe4	0.4644767
54	0xbec3ecb9	-0.38266543
55	0x3f55a9bc	0.8346212
56	0xbddfa14d	-0.109194376
57	0xbe1fe3f7	-0.15614305
58	0x3f443d80	0.7665634
59	0xbc706c53	-0.014674264
60	0xbda7dd4f	-0.08196508
61	0xbcdf0107	-0.02722217
62	0x3dc379ed	0.0954474
63	0xbd16c317	-0.036807146
64	0xbcc03cd2	-0.023466501
65	0xbe51d31e	-0.20490691
66	0xbe1e7426	-0.15473995
67	0x3dc19e3d	0.0945401
68	0x3f71bdc1	0.94430166
69	0x3e29e8e5	0.16592748
70	0x3d24c968	0.04023114
71	0x3f4683ea	0.77545035
72	0xc08466d1	-4.137551
73	0x3efc437a	0.4927023
74	0x3e9f388c	0.3109783
75	0xbfeb9f34	-1.840796
76	0x3ed1892e	0.40924972
77	0x3f09b976	0.53798616
78	0xbdf53990	-0.1197387
79	0x3ee576a4	0.44817078
80	0xbf97a3f0	-1.1846905
81	0x3e23ed88	0.1600858
82	0x3ed9fdb1	0.42576364
83	0xbfab82ed	-1.339933
84	0xbf768d34	-0.9630921
85	0x3c0f5440	0.008748114
86	0xbe8bdc74	-0.2731663
87	0x3ee74401	0.4516907
88	0x3e84b0a7	0.25916025
89	0xbe521340	-0.20515156
90	0xc0d22687	-6.567203
91	0x3e852819	0.26007155
92	0x3dd71061	0.10501171
93	0xc08997a1	-4.2997594
94	0x3d9a24a7	0.07526522
95	0x3f017f83	0.5058519
96	0x3da4e6b5	0.080518164
97	0x3f118b53	0.56853217
98	0x3e9ee740	0.31035805
99	0xbdb9e64e	-0.0907713
100	0x3ecec651	0.40385678
101	0x3ba0107b	0.004884777
102	0x3e0ff132	0.14056852
103	0x3e21f07c	0.15814394
104	0xbebb68f2	-0.36603504
105	0xbe506dfe	-0.20354459
106	0xbebcf8ad	-0.36908475
107	0x3eb2ae80	0.34898758
108	0xbdefd164	-0.1170986
109	0xbe4c6bbf	-0.19962977
110	0xbf64270b	-0.89122075
111	0x3cd8a9b3	0.026448106
112	0x3dca8faf	0.09890687
113	0xbfb11323	-1.3833965
114	0xbde1db27	-0.11028128
115	0x3efaa882	0.48956686
116	0x3f67173a	0.90269816
117	0x3e82bcad	0.25534573
118	0x3dd6b898	0.10484427
119	0x3f8cc22e	1.0996759
120	0xbf5129bd	-0.8170431
121	0x3c9d1b2e	0.019178
122	0x3e9d7f73	0.307613
123	0x3e9fe32c	0.31228006
124	0x3c635623	0.013875517
125	0xbf1406c0	-0.578228
126	0xbe88fec5	-0.26756874
127	0xbe9e5562	-0.30924517
128	0x3eb773b6	0.35830468
129	0xbd6a8750	-0.05725795
130	0x3e43053e	0.19044968
131	0x3edf5573	0.4361988
132	0xbe14107a	-0.1445941
133	0xbea0c70f	-0.3140187
134	0xbf015235	-0.5051606
135	0xbda23724	-0.079206735
136	0xbf3969e6	-0.72427213
137	0xbf6728e7	-0.9029679
138	0xbdf2e5d9	-0.11860246
139	0x3f0cf64f	0.5506334
140	0x3ecf01ed	0.40431157
141	0x3dd61acb	0.10454329
142	0x3e56bccf	0.20970462
143	0x3eb07636	0.34465188
144	0xbe6dbf12	-0.23217419
145	0x3e9d2496	0.30691975
146	0xbe1ab05e	-0.15106341
147	0xbc166d62	-0.009181352
148	0x3f257763	0.64635295
149	0x3e3ad987	0.18247043
150	0xbeb8c6b9	-0.36089113
151	0xbe5cf611	-0.21578242
152	0x3e39258e	0.18080732
153	0xbea78acc	-0.3272308
154	0xbe8285cc	-0.25492704
155	0xbea040a0	-0.31299305
156	0xbd4901d1	-0.049073998
157	0x3f4897ae	0.78356445
158	0xbf3ccfea	-0.7375475
159	0xbfc04c0d	-1.5023209
160	0x3e8a718a	0.27039748
161	0xbea7181c	-0.32635581
162	0xbdae2bec	-0.08504471
163	0xbed7d7a9	-0.42156723
164	0xbf028760	-0.50987816
165	0x3d90d11e	0.07071136
166	0xbeb957f8	-0.36199927
167	0xbe8312c3	-0.25600252
168	0xbc96b06d	-0.018394673
169	0xbf4b40ef	-0.79395956
170	0xbfb30abc	-1.3987651
171	0x3e50a8a7	0.20376836
172	0xbf8f1502	-1.1178286
173	0xbfb0ba87	-1.3806924
174	0xc0ae5d23	-5.448869
175	0xbefc9efb	-0.49340042
176	0x3ec6af90	0.3880582
177	0xc0aba2a0	-5.3636017
178	0xbe15d025	-0.14630182
179	0x3f363004	0.71167016
180	0xbebf0c4f	-0.37314078
181	0xbec2b62c	-0.3802961
182	0xbf50cc89	-0.81562096
183	0xbed93570	-0.42423582
184	0x3e01a2ba	0.12659732
185	0xbe8ffab2	-0.28120953
186	0xbd0dd7ca	-0.03462962
187	0xbe934fbd	-0.28771773
188	0xbe1381b8	-0.14404953
189	0x3b423fce	0.0029640081
190	0xbed8c1ca	-0.4233535
191	0xbef29294	-0.47377455

GAT_layers.0.GAT_heads.3.f.bias f4 [32]
0	0xbec7102d	-0.3887953
1	0xbe9bfbe2	-0.3046561
2	0xbd880fc0	-0.06643629
3	0x3eb08621	0.34477332
4	0x3eb157af	0.3463721
5	0xbcd654aa	-0.026163418
6	0xbfdfd01d	-1.7485386
7	0x3e04d8ef	0.12973379
8	0x3eab0345	0.33400932
9	0x3dabe5ac	0.08393416
10	0xbbd7e1a8	-0.0065881796
11	0xbe42b256	-0.19013342
12	0x3d442146	0.047883295
13	0x3eba898d	0.36433068
14	0x3d1da886	0.038490795
15	0x3ea8fda2	0.33006006
16	0xbf1a3c4e	-0.6024827
17	0xbd795c38	-0.060878962
18	0x3e93f42e	0.28897232
19	0xbf086d56	-0.53291833
20	0xbca3381b	-0.019924214
21	0xbe0ea1ed	-0.13928957
22	0x3e9273e4	0.28604043
23	0xbf24f956	-0.64442956
24	0xbf2abb15	-0.66691715
25	0xbe34cd00	-0.17656326
26	0xbe60d9a2	-0.2195802
27	0x3f8c5a9b	1.096515
28	0x3f04f234	0.5193207
29	0x3e31ce9b	0.1736397
30	0x3eae2673	0.3401371
31	0xbed5fd33	-0.41794738

GAT_layers.0.GAT_heads.3.w.weight f4 [1, 6]
0	0xbb97855c	-0.004624052
1	0x3fbe6454	1.4874368
2	0xbd5fd8a2	-0.054649957
3	0xbe51d05d	-0.2048964
4	0xbfa1ed06	-1.2650459
5	0x3eab3fd7	0.33447143

GAT_layers.1.GAT_heads.0.f.weight f4 [64, 256]
0	0x3ced6e00	0.028983116
1	0x3d388314	0.04504688
2	0xbcc5d75c	-0.024150543
3	0x3cf56ac5	0.029958138
4	0xbdb47086	-0.08810525
5	0xbe142e88	-0.14470875
6	0xbe5fe003	-0.21862797
7	0xbdeacbfa	-0.11464687
8	0x3db9013a	0.09033437
9	0xbe128d5f	-0.14311741
10	0xbd9543f5	-0.072883524
11	0x3d406ebc	0.046980605
12	0xbe08a126	-0.13342723
13	0xbe3f7fc2	-0.1870108
14	0x3e0aeb8a	0.13566414
15	0xbd08f286	-0.033434413
16	0xbe4e1f0d	-0.20129032
17	0x3d47f399	0.048816297
18	0xbe294680	-0.165308
19	0x3c97a244	0.018509991
20	0x3da9d531	0.08292616
21	0xbd617cee	-0.055050783
22	0x3ccc3478	0.024927363
23	0x3d6f8a7c	0.05848168
24	0xbe4c6b0f	-0.19962715
25	0xbe063725	-0.13106973
26	0x3d488177	0.048951592
27	0xbd99386f	-0.07481467
28	0xbd10548c	-0.03523688
29	0xbdb30703	-0.08741572
30	0x3deb62c0	0.114934444
31	0x3df56e58	0.11983937
32	0x3d247413	0.04014976
33	0xbe3d3554	-0.18477374
34	0xbd6a0871	-0.057136957
35	0xbc51dba8	-0.012808718
36	0x3e0607ec	0.1308896
37	0xbd72483d	-0.059150923
38	0x3c0ba3c4	0.0085229315
39	0x3d007260	0.031359076
40	0xbd27b37f	-0.040942665
41	0xbd6d752a	-0.057973064
42	0xbd650b63	-0.055919062
43	0xbded6329	-0.11591179
44	0xbd042770	-0.032264173
45	0xbd1b9d90	-0.03799206
46	0xbe083a13	-0.13303404
47	0xbd5ca010	-0.053863585
48	0xbcc075ec	-0.02349373
49	0x3bdf38df	0.0068121995
50	0xbd9555bb	-0.072917424
51	0xbdb4cbee	-0.08827959
52	0x3d59aed4	0.053145245
53	0x3ca93f19	0.02065997
54	0xbb240c84	-0.0025031874
55	0xbe131272	-0.14362505
56	0x3c03dfb2	0.008048939
57	0xbe061167	-0.13092576
58	0x3c6cad79	0.014445656
59	0xbe2c3ab3	-0.16819267
60	0x3dc4090a	0.095720366
61	0xbdae94a4	-0.08524445
62	0x3da0de8f	0.0785495
63	0xbe22cc67	-0.15898286
64	0x3d9355bf	0.07194089
65	0xbd41d7ae	-0.04732483
66	0x3dff95d4	0.12479749
67	0xbde512aa	-0.111852005
68	0x3d547654	0.05187066
69	0x3cbd8f68	0.02313967
70	0xbd0e1ecc	-0.03469734
71	0x3dcb7919	0.09935207
72	0xbd1714bc	-0.03688501
73	0x3ddec96a	0.108782604
74	0xbde87334	-0.11350098
75	0x3df506e0	0.11964202
76	0x3d5e5134	0.05427666
77	0xbdfc6cf1	-0.123254664
78	0xbe0a24c4	-0.13490587
79	0xbc5d4f4d	-0.013507676
80	0x3d32f3e4	0.043689623
81	0x3bb4a1e0	0.005512461
82	0xbda02da2	-0.07821204
83	0x3ddd811e	0.10815643
84	0xbd232658	-0.03983149
85	0xbe0d817d	-0.13818927
86	0xbe0a9191	-0.13532092
87	0xbd1870ec	-0.037217066
88	0xbd9ebde2	-0.07751061
89	0xbdd82f05	-0.10555843
90	0xbda2f8de	-0.07957624
91	0xbdd142e8	-0.102178395
92	0xbdf06ddb	-0.11739703
93	0xbac6dd80	-0.0015172213
94	0x3caa3f78	0.020782217
95	0xbd24b5de	-0.040212505
96	0x3d612f9b	0.05497704
97	0xbc2660df	-0.010154932
98	0xbd54f82f	-0.0519945
99	0xbe2274ba	-0.1586484
100	0x3d171dec	0.03689377
101	0xbde41b5f	-0.11138033
102	0xbd93c730	-0.072157264
103	0xbcb2af88	-0.021812215
104	0xbd3d231c	-0.04617606
105	0xbe30e095	-0.17273171
106	0x3d507340	0.05089116
107	0xbe10a10c	-0.14123935
108	0x3cea59cb	0.02860727
109	0x3d1fbd91	0.038999144
110	0xbd27e72b	-0.040991943
111	0x3d3add57	0.045621242
112	0x3d8f8365	0.070074834
113	0xbdc4f69d	-0.0961735
114	0x3e25d1e9	0.16193356
115	0x3b00ed8b	0.0019672837
116	0xbdea570a	-0.11442383
117	0xbd9d2bf0	-0.07674396
118	0x3dbeebe9	0.0932234
119	0x3e1caaf3	0.15299587
120	0x3e1f9104	0.15582663
121	0xbe0b6ce8	-0.13615763
122	0xbcf74228	-0.030182913
123	0x3d33e99d	0.043923963
124	0x3e08a478	0.1334399
125	0x3cedfc7e	0.029051062
126	0xbcc9a3b7	-0.024614198
127	0xbd85ba27	-0.06529646
128	0xbdc009d8	-0.093768775
129	0x3df06bec	0.117393345
130	0x3c3ea210	0.011635318
131	0xbe58f7d3	-0.21188287
132	0x3d9ecde8	0.07754117
133	0xbcbcb694	-0.023036279
134	0xbe28d4c4	-0.16487414
135	0x3d6be374	0.057589963
136	0xbdc4cc7e	-0.09609316
137	0xbdfb7a49	-0.122791834
138	0x3cf3bcce	0.029753115
139	0x3dadaba4	0.084800035
140	0xbcf0a86d	-0.029377187
141	0x3d1ac4f6	0.037785493
142	0xbddf082d	-0.10890231
143	0x3db0c0e4	0.08630541
144	0xbe6051b5	-0.21906169
145	0xbe12e066	-0.14343414
146	0x3bbdf650	0.005797185
147	0xbd896ccc	-0.067102045
148	0x3b2401b0	0.002502542
149	0xbda1416a	-0.07873805
150	0x3de48682	0.11158468
151	0x3df2038c	0.11817083
152	0xbde5415c	-0.11194107
153	0xbda62024	-0.08111599
154	0xbe46f77c	-0.19430345
155	0xbe2dd0bc	-0.16974157
156	0x3c5444a0	0.012955815
157	0xbdab9db1	-0.083796866
158	0x3de6d2da	0.112706855
159	0x3de229b0	0.110431075
160	0xbdf575bb	-0.11985346
161	0xbe347e2c	-0.17626256
162	0xbd0aac53	-0.033855747
163	0xbcb77e5b	-0.022399118
164	0xbd84a9a3	-0.06477668
165	0xbe01518d	-0.12628765
166	0x3d0d592b	0.034508865
167	0xbd3ca7d0	-0.046058476
168	0x3dabcb65	0.08388404
169	0xbdf9315f	-0.1216762
170	0x3db58060	0.08862376
171	0xbe194a8f	-0.14969848
172	0xbd350a8e	-0.04419952
173	0x3d11641e	0.03549587
174	0xbd99e8c9	-0.07515103
175	0xbdd60c14	-0.104515225
176	0xbe2045e0	-0.15651655
177	0xbe0e0e7e	-0.13872716
178	0xbd656b1a	-0.056010343
179	0x3de89875	0.11357204
180	0x3cfe5d7c	0.031050436
181	0xbd03c90f	-0.032174166
182	0x3ce23d49	0.027617114
183	0xbe08a676	-0.1334475
184	0xbe24ef19	-0.16106834
185	0xbdfe4d64	-0.12417105
186	0x3db60edf	0.08889555
187	0xbdc10549	-0.09424836
188	0x3c1f405f	0.009719937
189	0x3e024414	0.12721282
190	0x3db7307a	0.08944793
191	0x3dae9b40	0.08525705
192	0xbdf0c868	-0.117569745
193	0x3c81f9d0	0.01586619
194	0x3dd0d248	0.10196358
195	0xbe178e22	-0.14800313
196	0x3d7662a5	0.06015267
197	0xbc5488c8	-0.012972064
198	0x3dbfaa78	0.09358686
199	0x3de0c262	0.109745756
200	0x3cefd639	0.029276954
201	0x3da15eb7	0.078793935
202	0xbe2055e7	-0.15657769
203	0xbda697ba	-0.08134408
204	0x3d87e51e	0.066354975
205	0xbe1f8e15	-0.15581544
206	0xbd7f8a41	-0.06238771
207	0xbc36eb6a	-0.0111645255
208	0x3d13c498	0.03607616
209	0x3d3d17f8	0.046165437
210	0x3d74d068	0.059769064
211	0xbe2357ce	-0.15951464
212	0x3e0a5c36	0.13511738
213	0x3a338ca7	0.0006849267
214	0x3e04a0fe	0.12952039
215	0xbbe59020	-0.0070057064
216	0xbddb3dc0	-0.10705137
217	0xbd622064	-0.05520667
218	0x3d421ba4	0.04738964
219	0xbdb94ebb	-0.0904822
220	0xbc48bd87	-0.012252218
221	0xbdc5ed40	-0.096643925
222	0xbdd6eed2	-0.1049477
223	0xbb196f04	-0.0023412118
224	0x3db56225	0.0885661
225	0x3d7cbcf4	0.061703637
226	0x3db55ada	0.08855219
227	0xbdffc2c4	-0.124883205
228	0x3cb2c9d3	0.021824753
229	0xbdd70009	-0.104980536
230	0x3da0d101	0.07852364
231	0xbd8ae7ac	-0.06782469
232	0xbde62e3c	-0.11239287
233	0xbe24b642	-0.16085151
234	0xbe23db51	-0.16001631
235	0x3c8678be	0.016414996
236	0x3d58839a	0.05285988
237	0xbde3ffb9	-0.111327596
238	0xbda97098	-0.08273429
239	0x3d20aba3	0.039226186
240	0xbba884c6	-0.005142781
241	0xbddaad77	-0.10677617
242	0xbd8055b2	-0.06266345
243	0x3d3ec48a	0.046574153
244	0x3dbeefc5	0.09323076
245	0xbcc70bdd	-0.024297649
246	0x3df89080	0.12136936
247	0x3a19a288	0.0005860706
248	0x3d89d2dc	0.06729671
249	0x3d98198e	0.07426749
250	0xbd8094c0	-0.06278372
251	0x3cca8956	0.02472369
252	0xbcff5497	-0.031168265
253	0x3d8d76d1	0.06907428
254	0xbd2470bd	-0.040146578
255	0x3df6f152	0.12057747

GAT_layers.1.GAT_heads.0.f.bias f4 [64]
0	0xbc8be399	-0.0170763
1	0xbdc0cb81	-0.09413815
2	0xbcfcf90b	-0.030880472
3	0xbdec8de4	-0.11550501
4	0xbcbcf304	-0.023065098
5	0xbe2f1e99	-0.17101516
6	0xbdafe915	-0.08589379
7	0xbdc11dec	-0.09429535
8	0xbbbf8089	-0.00584418
9	0xbd83b068	-0.06430131
10	0xbcde8f45	-0.027167926
11	0xbce446d6	-0.027865808
12	0xbd99b96d	-0.0750607
13	0x3d1a8dc8	0.03773287
14	0xbd0df004	-0.034652725
15	0x3d445133	0.047929
16	0xbaa12da8	-0.0012296932
17	0xbe0454a7	-0.12922917
18	0xbdbac04d	-0.0911871
19	0xbd272476	-0.040806256
20	0xbdeb5db6	-0.11492483
21	0xbd316050	-0.04330474
22	0xbcd119a7	-0.025524927
23	0xbe184fe0	-0.1487422
24	0xbd9e532e	-0.07730709
25	0xbde8aa91	-0.11360658
26	0x3ce609fe	0.028080937
27	0xbc9f573e	-0.01945078
28	0x3d4e91f8	0.050432175
29	0xbd25ad4e	-0.04044848
30	0xbe8310a8	-0.25598645
31	0xbdca7ac5	-0.09886698
32	0xbe02b4c6	-0.12764272
33	0x3b446970	0.0029970072
34	0xbd87e39b	-0.06635209
35	0xbd48aefe	-0.04899501
36	0xbd332ae7	-0.043742087
37	0xbd4b8450	-0.04968673
38	0xbc3d5b1c	-0.011557367
39	0xbdbf0ee5	-0.09329013
40	0xbd9353f0	-0.07193744
41	0xbd8354c4	-0.06412652
42	0xbe1f4ecd	-0.15557404
43	0xbcf52154	-0.029923119
44	0xbc396673	-0.01131593
45	0x3c386e50	0.011256769
46	0xbd0e2c2f	-0.034710106
47	0xbdf743da	-0.120734885
48	0xbe229889	-0.158785
49	0xbda7e670	-0.08198249
50	0xbe0140bc	-0.1262235
51	0x3d3d273e	0.046180002
52	0xbd08f234	-0.033434108
53	0xbd3cf1cd	-0.046129037
54	0x3d64763c	0.05577682
55	0xbe00e06f	-0.12585615
56	0xbe2acd7a	-0.16679946
57	0xbd5fcf7a	-0.054641224
58	0x3b3a17b2	0.002839547
59	0xbdd90eab	-0.10598501
60	0xbdc60bea	-0.09670241
61	0xbda40565	-0.080088414
62	0xbd104f1b	-0.03523169
63	0xbde0ef7a	-0.109831765

GAT_layers.1.GAT_heads.0.w.weight f4 [1, 256]
0	0x3de67a76	0.11253826
1	0x3d1be350	0.03805858
2	0xbd1dc34e	-0.038516335
3	0x3ec8703e	0.39148134
4	0xbc1aa9a0	-0.009439856
5	0x3ea918d4	0.33026755
6	0x3d645c74	0.055752233
7	0xbc091fa0	-0.008369356
8	0xbd9569d1	-0.072955735
9	0x3e4aeba2	0.1981645
10	0x3f0b50f9	0.5442043
11	0x3d3f5795	0.046714384
12	0x3de33f5d	0.1109607
13	0xbb945d1e	-0.004527702
14	0xbe015baa	-0.12632623
15	0x3d8c6512	0.06855215
16	0x3da31ecf	0.07964861
17	0x3dd8a8a6	0.10579042
18	0x3e5d68e0	0.21622038
19	0x3ebeb1c1	0.3724499
20	0xbc5b20e0	-0.013374537
21	0xbdd36ca1	-0.10323454
22	0xbd415d06	-0.047207855
23	0x3d00feac	0.031492874
24	0x3e33fc1c	0.17576641
25	0x3e398278	0.18116176
26	0x3e25530b	0.1614496
27	0x3e7e5db3	0.24840431
28	0xbe0c0a03	-0.13675694
29	0x3d22d228	0.039751202
30	0xbddb9e02	-0.10723497
31	0xbe0380b7	-0.1284207
32	0xbe65fcc3	-0.22459702
33	0xbe7f6031	-0.24939038
34	0xbdeb1a2c	-0.11479601
35	0x3e1b3366	0.15156326
36	0xbe65aa1f	-0.22428177
37	0xbed8b203	-0.42323312
38	0xbdb8a1b5	-0.09015218
39	0xbbdf15bf	-0.0068080123
40	0x3e8ecd35	0.27890936
41	0xbe587e50	-0.21141934
42	0xbbe79c8e	-0.0070682233
43	0x3e164232	0.14673689
44	0x3d4d2f7e	0.05009412
45	0x3e000732	0.12502745
46	0xbd15a25f	-0.036531802
47	0x3bea535d	0.007151051
48	0xbe46c55a	-0.19411221
49	0x3d4a5aae	0.049402885
50	0xbca3cf51	-0.019996317
51	0x3e122ed2	0.14275673
52	0xbdf1642f	-0.11786687
53	0xbdde4c68	-0.10854417
54	0xbd938592	-0.07203211
55	0xbca9e695	-0.020739833
56	0xbeb5a386	-0.3547632
57	0xbdb09a03	-0.086231254
58	0x3e1bff12	0.1523402
59	0xbe4f57b8	-0.20248306
60	0xbd83ce7f	-0.064358704
61	0xbdff6564	-0.124705106
62	0xbc372fa0	-0.011180788
63	0xbd8250f4	-0.06363097
64	0x3d046be2	0.032329448
65	0xbdf90858	-0.121597946
66	0xbccb9068	-0.024849132
67	0x3d1e82f7	0.038699117
68	0xbd18bfb6	-0.037292205
69	0xbcb48948	-0.022038117
70	0xbe08f3c9	-0.13374247
71	0xbba1a6a5	-0.0049331957
72	0xbc4b0a0e	-0.012392534
73	0x3e459d6c	0.19298333
74	0x3dd4e71e	0.103956446
75	0x3e11f821	0.1425481
76	0x3df82cc0	0.121179104
77	0x3d9ab8db	0.0755479
78	0xbcc2955f	-0.023752866
79	0xbd4274b8	-0.047474593
80	0x3d3defe5	0.04637136
81	0x3a4f8500	0.0007916242
82	0xbc8717cf	-0.016490845
83	0x3e190f5e	0.14947268
84	0xbdb7d7c4	-0.08976701
85	0xbdcef554	-0.101053864
86	0x3c4c2055	0.01245888
87	0x3d5cef25	0.053939003
88	0xbe19b4fc	-0.15010446
89	0xbdb0958c	-0.08622274
90	0xbc81e2b8	-0.015855178
91	0x3e102527	0.14076672
92	0xbe1ffb01	-0.15623094
93	0x3dab5afc	0.08366963
94	0x3d6adecc	0.057341382
95	0xbb77e620	-0.0037826374
96	0xbd729833	-0.05922718
97	0xbe49ce9c	-0.19707721
98	0xbdb8ce3d	-0.09023712
99	0xbda6e625	-0.08149365
100	0xbe71c90b	-0.23611848
101	0xbea52c41	-0.32260326
102	0xbc93b2a9	-0.018029528
103	0xbdda240e	-0.10651408
104	0xbe0c8957	-0.13724266
105	0xbe027ac2	-0.12742141
106	0xbeaaa7f3	-0.3333126
107	0xbe596930	-0.21231532
108	0xbe36e7bd	-0.17861839
109	0xbe11fd6a	-0.14256826
110	0x3c55b50b	0.013043652
111	0xbe21382d	-0.15744086
112	0xbe14893a	-0.14505473
113	0xbdbc2df9	-0.09188456
114	0xbdb686f2	-0.089124575
115	0xbe8ca1e5	-0.27467266
116	0xbdb4f1b1	-0.088351615
117	0xbe4deaae	-0.20109054
118	0xbe6460e5	-0.22302587
119	0xbe55e875	-0.20889457
120	0xbd44b55d	-0.048024524
121	0xbe04e2ba	-0.12977114
122	0x3d927350	0.071509
123	0xbea66fb0	-0.32507086
124	0x3caf0f6a	0.021369655
125	0xbe16580c	-0.14682025
126	0xbc950b5e	-0.018193897
127	0xbdcdcaaf	-0.100484245
128	0xbdbe182e	-0.09281956
129	0xbdef5986	-0.11686997
130	0xbdacac55	-0.08431307
131	0x3e16ca15	0.14725526
132	0xbd149546	-0.03627517
133	0xbdda6ad3	-0.10664906
134	0x3dd0ee4c	0.102017015
135	0xbe0558cb	-0.13022153
136	0xbe111252	-0.14167145
137	0x3c3c049d	0.011475709
138	0x3e5a301e	0.21307418
139	0xbd05f328	-0.032702595
140	0xbc6f7e8d	-0.014617574
141	0xbd60af01	-0.054854397
142	0x3ddf09fa	0.10890575
143	0xbdd5df9b	-0.1044304
144	0xbdc2a9de	-0.09505056
145	0xbe4e9ea3	-0.20177703
146	0x3d33535e	0.043780677
147	0x3dea999e	0.114550814
148	0x3cefb6a1	0.029261889
149	0x3cab3520	0.020899355
150	0x3dfe8702	0.124280944
151	0x3dbeaa50	0.09309828
152	0x39802701	0.00024443123
153	0xbba656a6	-0.0050762473
154	0x3c87c6ee	0.01657435
155	0x3daa6e52	0.08321823
156	0xbcc18e10	-0.023627311
157	0xbd4490b2	-0.047989555
158	0x3df657c2	0.12028457
159	0xbc8e1130	-0.01734218
160	0x3e3ddf8a	0.18542305
161	0xbf087936	-0.53309953
162	0xbdee0512	-0.11622061
163	0x3d8bca1b	0.06825658
164	0xbee42ceb	-0.4456552
165	0xbd17456b	-0.036931437
166	0xbca8e291	-0.020615848
167	0xbe066dab	-0.13127773
168	0x3eadcfe3	0.33947667
169	0xbeccbde1	-0.39988616
170	0xbec1d54a	-0.3785804
171	0x3ea735fc	0.32658374
172	0x3e63d984	0.22250944
173	0xbe79eaaa	-0.24405923
174	0xbebdc4da	-0.37064248
175	0x3e0acb99	0.13554229
176	0xbed80958	-0.4219463
177	0xbea543ea	-0.32278377
178	0x3e106055	0.14099248
179	0x3d4b97d1	0.04970533
180	0xbcb7e58c	-0.022448324
181	0xbdb5d0f5	-0.08877746
182	0xbdd12bab	-0.10213407
183	0xbe28af37	-0.16473089
184	0xbe9c7475	-0.305576
185	0xbf07a61c	-0.5298784
186	0x3d481940	0.048852205
187	0xbefb026b	-0.49025282
188	0xbe626ccd	-0.22111817
189	0x3b187a80	0.0023266375
190	0xbd814989	-0.06312854
191	0x3ea846dd	0.32866564
192	0xbda62cd5	-0.0811402
193	0xbd8eecf4	-0.06978789
194	0xbda5f68d	-0.081036665
195	0x3d714e0f	0.058912333
196	0x3e889669	0.26677254
197	0x3b917bc0	0.004439801
198	0xbcff27a0	-0.031146824
199	0x3db9ac34	0.09066048
200	0x3df3052b	0.1186622
201	0xbcdd494a	-0.027012486
202	0x3ce7d9bc	0.028302066
203	0xbdb88d8b	-0.09011372
204	0xbc4bc283	-0.012436512
205	0x3e40d516	0.18831286
206	0x3e80694f	0.25080344
207	0x3d6dc27c	0.058046803
208	0xbd33fa8f	-0.043940123
209	0xbd57f232	-0.05272121
210	0x3e89bc8a	0.26901656
211	0x3e9e389e	0.3090257
212	0xbdec8600	-0.11548996
213	0x3da552db	0.08072444
214	0xbd80352a	-0.0626014
215	0x3dce1caf	0.10064065
216	0x3cc572f0	0.024102658
217	0xbc6635e0	-0.014050931
218	0xbdcf22ec	-0.10114083
219	0x3eb18bda	0.3467701
220	0x3d759a54	0.059961632
221	0xbca72c78	-0.020406947
222	0xbd53c624	-0.051702634
223	0xbe029831	-0.12753369
224	0xbeb878f8	-0.36029792
225	0xbeedbecb	-0.46434626
226	0xbc3341de	-0.010940997
227	0xbed76a29	-0.4207318
228	0xbe506a8d	-0.20353146
229	0xbeb9f6b8	-0.36321044
230	0xbefb0762	-0.4902907
231	0xbe8cf210	-0.2752843
232	0xbea31751	-0.31853727
233	0xbe69e34e	-0.22840616
234	0xbe754d52	-0.23955277
235	0xbeb3e58d	-0.3513607
236	0xbf22e50a	-0.63630736
237	0xbe4b26de	-0.19839045
238	0xbea0feec	-0.3144449
239	0xbf07cbaf	-0.5304517
240	0xbeaf1287	-0.34193823
241	0xbe952854	-0.2913233
242	0xbee8a5aa	-0.45438892
243	0xbef03825	-0.46917835
244	0xbe8b4347	-0.27199766
245	0xbebdbd6f	-0.3705859
246	0xbe251d5a	-0.16124478
247	0xbeadc7c9	-0.33941486
248	0xbec4a6b7	-0.38408443
249	0x3e13af23	0.14422278
250	0xbe4fa501	-0.20277788
251	0xbe964518	-0.2934959
252	0xbeaed4f6	-0.3414685
253	0xbeb5a6db	-0.35478863
254	0xbe8c6f8d	-0.27428856
255	0x3d7851f0	0.060625017

GAT_layers.1.GAT_heads.1.f.weight f4 [64, 256]
0	0xbdb3ff22	-0.08788897
1	0xbd6df2d8	-0.058092922
2	0xbdc01077	-0.093781404
3	0xbe2ceaf8	-0.16886508
4	0xbdf56220	-0.119816065
5	0xbcdc49d2	-0.026890669
6	0xbc9cffc9	-0.019164937
7	0x3d402978	0.046914548
8	0x3dd5c65a	0.10438223
9	0xbe39d1e6	-0.18146476
10	0xbe6ad4fb	-0.22932808
11	0x3df1acc4	0.118005306
12	0x3db41bf2	0.08794393
13	0xbdd21247	-0.102573924
14	0xbda89f54	-0.082335144
15	0x3ddf9c6c	0.10918507
16	0xbda66bfa	-0.08126064
17	0xbcb6a3de	-0.022294935
18	0x3c9f4220	0.01944071
19	0xbe1203aa	-0.1425921
20	0xbd824bf8	-0.06362146
21	0x3cb649e0	0.022252023
22	0x3d0b717c	0.034043774
23	0xbc9737d4	-0.018459238
24	0xbe13c633	-0.14431076
25	0xbcc77a0f	-0.024350194
26	0xbe4dabf3	-0.20085125
27	0xbb82947d	-0.0039849863
28	0x3d2b6888	0.041847736
29	0xbd0d4f1c	-0.034499273
30	0x3c768d00	0.015048265
31	0x3dbef82e	0.0932468
32	0xbd9b5818	-0.07585162
33	0xbe1510b3	-0.14557151
34	0x3d37b3f3	0.044849347
35	0x3c6cddda	0.01445719
36	0x3d6a1014	0.05714424
37	0xbcfbd71b	-0.030742219
38	0xbd59a16c	-0.05313246
39	0xbd609006	-0.05482485
40	0x3da3a3d7	0.07990234
41	0x3c50c98e	0.012743367
42	0x3dcb64c8	0.09931332
43	0xbd45302e	-0.04814165
44	0xbd385668	-0.04500428
45	0xbd4b0e65	-0.049574275
46	0x3db55075	0.088532366
47	0xbdb8ae53	-0.09017625
48	0x3d68c3d1	0.05682737
49	0xbdf58ada	-0.119893745
50	0x3c9b67b0	0.01897034
51	0x3e006f9c	0.12542576
52	0xbdb06d54	-0.08614603
53	0x3d80a1b7	0.06280845
54	0xbd366e7a	-0.044538952
55	0xbdfbd35a	-0.122961715
56	0xbe1fc75e	-0.15603396
57	0xbd0fff6b	-0.035155695
58	0xbda6d797	-0.08146589
59	0x3c267e65	0.010161971
60	0xbc9326cf	-0.017962841
61	0xbd7abba0	-0.06121409
62	0x3c994003	0.018707281
63	0xbe01291a	-0.12613335
64	0xbe11b1da	-0.14228001
65	0xbc4ff858	-0.012693487
66	0xbd06a778	-0.032874554
67	0x3d636a4f	0.055521306
68	0x3d4293c5	0.047504205
69	0x3de7cfa0	0.11318898
70	0xbdf524be	-0.11969899
71	0xbc1493f0	-0.009068474
72	0xbdfcd70c	-0.123457044
73	0x3cf3d914	0.029766597
74	0xbe0989db	-0.13431494
75	0x3bf377e0	0.0074300617
76	0x3db31c02	0.087455764
77	0xbdc5fdce	-0.0966755
78	0xbd9a2a5f	-0.07527613
79	0xbdc4ead4	-0.096151024
80	0xbdc59cd2	-0.09649052
81	0xbd2dd17e	-0.042436115
82	0x3d13114b	0.035905164
83	0x3b18b6ac	0.002330224
84	0x3e0b1472	0.13582018
85	0xbdb85b76	-0.0900182
86	0xbb11fac0	-0.0022274703
87	0x3d3e01c9	0.04638842
88	0xbbbd89e0	-0.0057842582
89	0x3dddb100	0.10824776
90	0x3da635d4	0.08115736
91	0xbd31feee	-0.04345601
92	0xbd33146e	-0.043720655
93	0x3c85c560	0.016329467
94	0xbd771e1d	-0.060331453
95	0xbd6ea91a	-0.058266737
96	0xbd943b71	-0.072379
97	0x3c4bf0cf	0.01244755
98	0xbdc8b58d	-0.09800253
99	0xbb035d72	-0.0020044711
100	0x3d9265b4	0.071483046
101	0xbd4582e5	-0.048220534
102	0xbd796c5e	-0.060894363
103	0x3cdd07a4	0.026981182
104	0xbd90f2ed	-0.070775844
105	0x3c219adf	0.009863584
106	0x3ddcbc29	0.10778076
107	0x39a1bed0	0.0003085048
108	0xbcf96fa1	-0.030448737
109	0x3db9da58	0.09074849
110	0xbc879d57	-0.016554518
111	0xbdbaf2ab	-0.091283165
112	0x3d84a5f1	0.06476963
113	0x3dce2a51	0.10066665
114	0xbae4596b	-0.0017421668
115	0x3d47880a	0.04871372
116	0x3c743cfb	0.014907117
117	0x3e056b5f	0.1302924
118	0x3d2c1722	0.04201425
119	0xbbcb5d4e	-0.006206191
120	0x3c4a226c	0.012337308
121	0x3d61c69c	0.05512105
122	0xbd0b8911	-0.034066264
123	0xbdf348c9	-0.11879117
124	0xbc9c1f68	-0.019057944
125	0xbbad4ef2	-0.005288952
126	0xbba001b6	-0.0048830165
127	0xbdf21ba0	-0.11821675
128	0x3de92c14	0.1138536
129	0x3d977e96	0.07397191
130	0x3de4d682	0.111737266
131	0xba934432	-0.0011235534
132	0xbca0c11c	-0.019623332
133	0x3dd3941f	0.10330986
134	0x3da06378	0.07831472
135	0x3c9f8d90	0.019476682
136	0xbac2da80	-0.0014866143
137	0x3d838d8e	0.06423484
138	0xbcd603de	-0.02612489
139	0x3d3df340	0.04637456
140	0xbcf682a0	-0.030091584
141	0xbd8e7991	-0.06956781
142	0xbd132e96	-0.0359331
143	0xbe0406a9	-0.12893166
144	0x3d522759	0.051307056
145	0xbe3c3b39	-0.18381967
146	0x3d356bff	0.044292446
147	0x3db6d63a	0.08927579
148	0xbdc8828b	-0.09790524
149	0x3d2d6520	0.04233277
150	0xbde8877e	-0.11353968
151	0xbd53ed42	-0.05173994
152	0xbd7a911e	-0.06117355
153	0xbcc144f6	-0.023592453
154	0xbb92fd18	-0.0044857375
155	0xbd6f9169	-0.058488283
156	0x3cf38a50	0.029729038
157	0xbe0082ed	-0.12549944
158	0xbd721a14	-0.0591069
159	0x3dbeda88	0.09319025
160	0xbe01b94e	-0.12668344
161	0x3d965bab	0.07341703
162	0x3d2ac00a	0.04168705
163	0xbe203484	-0.15645033
164	0xbd8e4f39	-0.06948704
165	0x3df2d3db	0.118568145
166	0xbd539e2e	-0.051664524
167	0xbe3a85d0	-0.18215108
168	0xbe0087bf	-0.12551783
169	0x3ca28221	0.01983744
170	0x3dfd02d1	0.12354053
171	0xbdaaf541	-0.0834756
172	0x3d8a2274	0.06744853
173	0xbdf20873	-0.11818018
174	0xbd9696f6	-0.07353012
175	0xbe09b723	-0.13448767
176	0xbd3cb92f	-0.046075042
177	0xbdaddeaf	-0.08489739
178	0xbdf050af	-0.11734139
179	0x3e06d0c2	0.13165572
180	0xbdf0925d	-0.117466666
181	0x3b418ee7	0.002953464
182	0xbdf33095	-0.11874501
183	0x3d90119d	0.070346095
184	0xbd246b4b	-0.040141385
185	0x3df2a0d5	0.118470825
186	0x3cec566b	0.028849801
187	0xbd6cb2e7	-0.057787802
188	0x3be8fa16	0.0071098907
189	0xbc36aef0	-0.011150107
190	0x3d4cec24	0.05002989
191	0xbe047b59	-0.12937678
192	0x3d50938f	0.050921973
193	0xbdbce0b8	-0.09222549
194	0x3d228640	0.039678812
195	0xbdf69992	-0.1204101
196	0xbddabc3e	-0.106804356
197	0x3dd17ff8	0.10229486
198	0xbd7743f4	-0.06036754
199	0xbc1ecf89	-0.009693035
200	0x3c28d322	0.010304244
201	0xbe21791d	-0.15768857
202	0xbde19eac	-0.110165924
203	0x3d6bff40	0.057616472
204	0xbe01296d	-0.12613459
205	0xbe0a4175	-0.13501532
206	0xbd48a8fc	-0.04898928
207	0xbdf1eb32	-0.11812438
208	0x3db1779a	0.0866539
209	0xbcfdd4b8	-0.030985221
210	0xbc204bb9	-0.009783679
211	0xbbd23e95	-0.0064161518
212	0xbdb9e3bf	-0.09076642
213	0x3d77fb1c	0.06054221
214	0x3d99f15e	0.0751674
215	0xbd23da01	-0.040002827
216	0x3df2bf84	0.11852935
217	0xbdc85a46	-0.09782843
218	0x3e010b9a	0.12602082
219	0xbdb7533c	-0.089514226
220	0xbd58de04	-0.052946106
221	0xbd2d1ede	-0.042265765
222	0xbc7c3ca9	-0.015395322
223	0xbb1cea5b	-0.0023943398
224	0xbb519502	-0.0031979685
225	0x3d5baa96	0.05362948
226	0xbc993074	-0.018699862
227	0xbdc0cecf	-0.094144456
228	0xbe25e2b3	-0.1619976
229	0x3d9014c3	0.0703521
230	0x3df2fa1e	0.11864112
231	0xbdd4cc31	-0.10390509
232	0x3c669484	0.014073495
233	0xbd19b314	-0.037524298
234	0xbda77de1	-0.08178306
235	0xbdab8e19	-0.08376712
236	0xbdf24695	-0.11829869
237	0xbdec6c5e	-0.11544107
238	0xbe2802f7	-0.16407381
239	0x3c9bdbfb	0.019025793
240	0xbe02739d	-0.12739415
241	0xbb923709	-0.004462127
242	0xbdd5de98	-0.10442847
243	0x3dd3afec	0.10336289
244	0x3d92c38f	0.07166206
245	0x3df199ec	0.117969364
246	0x3da9ff58	0.08300656
247	0xbe0b5927	-0.13608228
248	0xbdfe609d	-0.12420771
249	0xbe02227b	-0.12708466
250	0xbe145e53	-0.14489107
251	0x3d879509	0.06620223
252	0xbd2081d3	-0.03918631
253	0x3cab1b46	0.020887028
254	0x3dab0de9	0.083522625
255	0xbdd1bee8	-0.102414906

GAT_layers.1.GAT_heads.1.f.bias f4 [64]
0	0xbd184f6c	-0.037185118
1	0xbcd04b10	-0.025426418
2	0xbdc652e3	-0.09683778
3	0xbcb2d592	-0.021830354
4	0xbd04ac88	-0.0323911
5	0xbd85ed71	-0.06539429
6	0x3c313cb1	0.010817693
7	0xbd28178e	-0.04103809
8	0xbd9db021	-0.076996095
9	0x3bcd9800	0.0062742233
10	0xbdb072da	-0.08615656
11	0x3d317ebe	0.04333376
12	0x3c864754	0.016391434
13	0x3e365595	0.17806084
14	0x3d8dc6a5	0.06922654
15	0xbd7b6545	-0.061375875
16	0x3cc76f87	0.024345173
17	0xbd52f96b	-0.051507395
18	0x3d0db57c	0.034596905
19	0xbcac1df4	-0.021010377
20	0x3d7a08e8	0.06104365
21	0xbd4045de	-0.04694163
22	0x3deff151	0.11715949
23	0xbc799291	-0.015232698
24	0x3d1ea87f	0.03873491
25	0x3d14a306	0.036288284
26	0xbc6d4f75	-0.014484276
27	0xbc70dbbd	-0.014700827
28	0x3d0c1ae5	0.034205336
29	0xbdbb1d93	-0.091365
30	0x3d3ac0aa	0.045593895
31	0xbc3ac7ab	-0.011400144
32	0xbd6e6d19	-0.058209512
33	0xbd0a3a73	-0.033747148
34	0x3d01c593	0.031682562
35	0xbd2691ba	-0.04066632
36	0xbacb3a95	-0.001550513
37	0xbb9eaafd	-0.0048421607
38	0xbcc7d6bc	-0.024394386
39	0xbd47c274	-0.04876943
40	0x3d1e3e02	0.038633354
41	0xbd65f71d	-0.05614387
42	0xbe00d4b4	-0.1258114
43	0xbd66e7d8	-0.056373447
44	0xbc881d54	-0.016615547
45	0xbdf94c51	-0.12172759
46	0xbd3e8550	-0.046513855
47	0xbdbc936f	-0.09207808
48	0xbdcdf75c	-0.10056946
49	0x3c067a4b	0.008207868
50	0xbdd23812	-0.10264601
51	0xbd572f28	-0.052535206
52	0xbd8d0a06	-0.068866774
53	0xbcd275ff	-0.02569103
54	0xbc776d95	-0.01510181
55	0x3d3c4b80	0.04597044
56	0x3d8a073a	0.067396596
57	0xbdce8bd5	-0.100852646
58	0xbd99596e	-0.074877605
59	0xbdbbccd6	-0.09169929
60	0xbdaeafc5	-0.08529619
61	0xbddc119a	-0.10745545
62	0x3b41b603	0.002955795
63	0x3acbd468	0.0015550973
